model.pt (torch, 399604 bytes, 6 tensors)

conv1.fc_neigh.weight f4 [64, 768]
000000 a2 07 94 bc 35 91 eb bd a2 c0 17 3e 3a f0 47 ba
       -0.018070046 -0.115023054 0.14819577 -0.0007627044
000010 cb d5 2a bd 1d 30 85 bb ad 38 05 3e aa 0e 16 3d
       -0.041707795 -0.0040645734 0.13009901 0.03663508
000020 2a 90 dc 3c 01 61 8d bd 4e a2 f4 bc 82 59 c9 3c
       0.026924212 -0.06903268 -0.02986255 0.024578813
000030 ac af b5 3c a5 b6 b2 bd a5 4e 97 3d de 2d f0 3d
       0.022178493 -0.08726243 0.07388047 0.117274985
000040 bf 32 15 bd 73 bd 2c be f8 f6 c7 bd 11 32 36 bb
       -0.03642535 -0.16869144 -0.097639024 -0.0027800838
000050 14 65 15 be c2 d3 32 bd c8 93 2f be cc b3 23 3d
       -0.1458934 -0.04365898 -0.17146218 0.03996639
000060 21 3b 7e 3c a6 18 8f 3c fb d4 17 be 45 51 c4 3c
       0.015517027 0.017467808 -0.1482734 0.023964534
000070 57 ef b1 bd ae c0 41 bc 31 d5 e6 3d d6 d9 48 3d
       -0.086882286 -0.011825724 0.11271132 0.04903587
000080 f9 3f 81 3c 0a 1b 19 3e 08 e7 dc bd ff 0c c6 bd
       0.015777575 0.14951721 -0.10786253 -0.096704476
000090 e7 c0 07 3d 85 55 1c 3e a3 a8 e8 bd 91 42 20 be
       0.03314295 0.15266998 -0.1136029 -0.15650393
0000a0 24 99 0d 3c df 71 03 be 4d b6 11 3d 32 f1 7e bc
       0.008642469 -0.12836407 0.035574246 -0.015560435
0000b0 c9 56 1d be b2 82 56 3d b9 10 b4 bd 2b 45 f0 bd
       -0.15365137 0.052370735 -0.08792252 -0.11731943
0000c0 cd 74 d5 bc e7 97 69 3d 0f b9 12 bd 01 10 64 bd
       -0.026056672 0.05702963 -0.035821017 -0.055679325
0000d0 4c ec 4c 3d 7c d6 e5 bd d8 be 79 3d 22 22 e6 3c
       0.050030038 -0.1122255 0.06097302 0.028092448
0000e0 d6 1b 22 3e 2d 96 b0 bd 47 dc ea 3d 25 f1 61 3c
       0.15830931 -0.08622394 0.11467796 0.0137904035
0000f0 18 81 3a bd 8e 3c df bd 5f 33 1d be cb 75 07 3e
       -0.04553327 -0.10900222 -0.15351628 0.13228528
000100 7d 2a 0a 3e 52 f6 23 be 84 6d dd bd bf b9 93 bb
       0.1349277 -0.16011932 -0.10811904 -0.0045082266
000110 3e a0 2a 3e 73 d2 8e bd 51 57 1c 3d bb af cc bc
       0.1666269 -0.06973734 0.03816921 -0.024986139
000120 a9 49 2d bd fc 58 08 bc 17 1e 9f bd 84 17 63 3d
       -0.042306576 -0.008321997 -0.07769411 0.055442348
000130 e4 98 d7 bc b5 72 de 3c 1d d0 2c bb 3c 00 10 bb
       -0.026318021 0.027154306 -0.0026369162 -0.0021972796
000140 3d b2 18 be 5f be 00 3d 25 86 66 bd cf 21 82 3d
       -0.14911743 0.031431552 -0.056280274 0.06354105
000150 05 bd aa bd 34 d2 35 3b 73 06 97 bd 9b 20 a7 3d
       -0.08336834 0.00277437 -0.07374277 0.08160516
000160 71 84 31 bd 88 7a 19 3e e1 dd e6 3d a4 3a bc bc
       -0.043339197 0.14988148 0.11272789 -0.02297718
000170 b0 6b 50 bd c3 1e 61 3d e1 de 0f be c9 7d 6b bc
       -0.05088395 0.054960977 -0.14049865 -0.014373251
000180 1f e4 ec 3d 60 4f 17 be a4 44 c2 bc da 43 32 bc
       0.11566948 -0.14776373 -0.023714371 -0.010880435
000190 7c 9a d1 3b 91 37 89 bd 24 ab 42 3d 4c 18 9f bd
       0.00639659 -0.067000516 0.047526494 -0.07768306
0001a0 b3 2b 16 3e c3 9b 62 bd a2 88 18 3d b2 ed f0 3d
       0.14665107 -0.055324327 0.03723968 0.11764087
0001b0 eb ea 0c bd c1 52 cc bd 81 0d 5e bc 71 1c 79 3d
       -0.034403723 -0.099767216 -0.013553024 0.06081814
0001c0 bc ac 1a bd 5b bf 5d bd d7 65 9a bd 12 08 fa 3d
       -0.03776239 -0.05413757 -0.07538956 0.122085705
0001d0 28 d5 d3 3d b5 a7 8b bd 2f c1 01 be 2d 6f 1e be
       0.10343391 -0.06819097 -0.1267135 -0.15472098
0001e0 a8 46 a6 3d 85 93 8a 3d 77 32 b0 bd 7a 83 76 bd
       0.08118945 0.06766418 -0.086033754 -0.06018398
0001f0 87 14 80 bc e6 a3 19 bd 32 a4 0f 3d 3b 73 8f 3d
       -0.015634788 -0.03750982 0.0350687 0.070044
000200 7f 25 e9 3d c1 e3 d9 bc be 76 b8 3d 37 b0 01 3d
       0.11384105 -0.02659786 0.09007023 0.031662192
000210 af 5e b3 bc 2a e3 09 3d 08 27 8a 3c 1a 23 bc bd
       -0.021895735 0.033663906 0.016864315 -0.091863826
000220 95 65 5b 3d 36 9c 7d 3c 81 ee 36 bd fc 53 01 3d
       0.053563673 0.015479138 -0.04466105 0.031574234
000230 a2 b0 d7 b9 62 25 cf 3c 93 a9 77 3b ca 95 2a 3e
       -0.00041139597 0.02528638 0.0037790283 0.16658702
000240 f2 de 0b be 87 56 31 3d 28 b6 f8 bc 73 c5 88 bd
       -0.13659266 0.04329541 -0.030360296 -0.066782854
000250 ca cb 27 3e 0e 75 33 bd b4 63 10 be 3e 1e f2 bd
       0.16386333 -0.043812804 -0.14100534 -0.118221745
000260 46 5a 09 3d 99 3d db bc fa db b5 bc c6 5c 0e 3d
       0.033533357 -0.02676277 -0.02219962 0.034756444
000270 8b d7 2d 3e 20 50 5d 3d 08 5a 96 3c 3b 79 a4 3c
       0.16976754 0.05403149 0.018353477 0.020077338
000280 d7 fa 32 3d 94 58 2d be 10 9a d5 bc 13 2d 0f be
       0.04369625 -0.16928321 -0.02607444 -0.13982038
000290 f6 b0 c3 3d 88 12 01 be ec f6 9e 3a 93 8a d6 3d
       0.09555237 -0.12604725 0.0012128032 0.1047565
0002a0 dd 3c cc bc f8 f0 23 3e 66 57 0e 3c 75 9f f1 bd
       -0.024931366 0.16009891 0.00868783 -0.11797992
0002b0 c2 48 01 be 3f 23 39 3d 60 58 15 be 51 0a 03 bd
       -0.12625411 0.04519963 -0.14584494 -0.03199226
0002c0 5a 73 eb bd c5 da 09 3d e9 82 14 be 11 05 a5 3d
       -0.11496611 0.0336559 -0.14503063 0.08057607
0002d0 c9 b8 90 3d 11 b1 5e 3b 78 71 ec 3d 8f cb e2 3b
       0.07066495 0.0033980052 0.1154508 0.0069212387
0002e0 5a 10 81 ba 7d 42 85 bd ca 61 28 be b8 15 a9 3d
       -0.0009846792 -0.06506822 -0.16443554 0.08256096
0002f0 d1 21 06 be 22 32 c0 3d ee 95 99 3d a5 37 20 3d
       -0.13098837 0.09384562 0.074993 0.039115567
000300 da e3 ba 3d 89 ae 88 3d 76 a6 9b 3c f6 6b 96 3d
       0.091254905 0.06673915 0.019000273 0.07344811
000310 ba 97 18 3e 92 3b 0c 3d 6b 27 30 bd 77 ee 03 3e
       0.14901629 0.0342365 -0.043006342 0.12883936
000320 4a c5 9e 3d 7c 0a 24 3e d5 2a fa bd e8 a3 4d bd
       0.07752474 0.16019624 -0.12215201 -0.05020514
000330 12 c6 2e 3e 5b 31 48 bd 19 b8 03 bd 21 17 ad bd
       0.17067745 -0.048875194 -0.03215799 -0.08451677
000340 8d 8f 45 3c 7d f1 db bd 86 73 0c be 86 7d f7 bc
       0.012058151 -0.107394196 -0.13715944 -0.030211221
000350 17 7c c3 bd e4 69 24 be 63 f8 bd bc 79 f9 4f ba
       -0.09545153 -0.16056019 -0.02318973 -0.00079335977
000360 c0 13 bc bd c5 87 25 bb f8 32 58 3d 0a 2e 92 bd
       -0.091834545 -0.0025257927 0.052782983 -0.071376875
000370 44 44 8a 3d 64 0c 02 be 0a bd be 3d 44 bc 67 3d
       0.06751302 -0.12700039 0.093134 0.05657603
000380 24 c3 31 be 42 10 37 3c b8 7a ce 3b ce ba e4 3d
       -0.17359596 0.01117331 0.0063012503 0.11168443
000390 c4 5a 30 3d 5d 8c 42 3d 81 15 32 be 79 a6 42 3d
       0.04305531 0.047497142 -0.17391016 0.047522042
0003a0 17 e7 b9 bd 19 6b 1a 3d 3e 8e bd bd 0a 4c ac bc
       -0.0907728 0.037699793 -0.09255646 -0.021032352
0003b0 83 cf 1c bd 12 c6 32 3e e4 86 42 3d f3 b3 14 3e
       -0.038283836 0.1745837 0.047491923 0.1452177
0003c0 14 42 39 3c 63 b9 42 bc 15 03 d4 3c 3b 1d 3e bd
       0.011307258 -0.01188502 0.025880376 -0.046414595
0003d0 f8 f9 04 3e a3 63 d2 3d 3f 18 86 bd b3 aa 0d bd
       0.1298598 0.102729104 -0.06547593 -0.03458662
0003e0 4a f7 30 bd 31 32 43 bd 99 e3 6f 3d 20 77 0e 3e
       -0.043204583 -0.047655288 0.058566663 0.1391263
0003f0 32 e6 2d bd d8 67 2e be ef 35 88 3d 12 c9 59 3d
       -0.04245586 -0.17031801 0.06650912 0.05317027

conv1.fc_self.weight f4 [64, 768]
000000 42 cf e3 3d 07 cb 24 bc 7d 47 65 bd 72 65 f4 bc
       0.11123516 -0.010058171 -0.05597638 -0.02983353
000010 48 ef 81 3d 7a a2 59 3d db 11 f4 3d 02 eb a1 bb
       0.063444674 0.053133465 0.11917468 -0.004941345
000020 c3 21 cc bd fc c0 44 bd af 13 1d be e4 81 d1 bc
       -0.09967377 -0.048035607 -0.1533954 -0.025574632
000030 97 07 dc bd d3 0a 35 bd dd 51 0d be 68 e7 97 3c
       -0.10743635 -0.044199776 -0.1380076 0.01854296
000040 4b 13 3a 3d 39 f3 f2 bd ef a3 f8 3d 78 73 8b bd
       0.045428555 -0.11862797 0.12140643 -0.06809133
000050 eb 59 68 bd bc 7b 23 3e b7 8e 50 3d c6 4e da bb
       -0.056726377 0.1596517 0.050917353 -0.0066622226
000060 8d ad 63 3d ab 32 1b be 84 ce 2c bd b8 e8 1a be
       0.055585433 -0.15156047 -0.042189136 -0.15127838
000070 a0 60 32 bc cb c9 86 3d e0 d8 f0 ba e2 5a 2c 3d
       -0.010887295 0.06581458 -0.0018375181 0.04207886
000080 12 9d 90 3d 1e fb cd 3d 3b 4f 79 3c 36 b8 49 3d
       0.07061209 0.100576624 0.015216644 0.049247943
000090 60 48 bf bd 7f a3 84 3d 53 a8 16 be c8 bd 36 bd
       -0.09339976 0.06476497 -0.14712648 -0.044614583
0000a0 bc 5a 49 3d 1b b4 81 bd 5b 83 be bb 05 39 12 be
       0.049158797 -0.063331805 -0.0058139986 -0.14279564
0000b0 e4 09 10 3c 3a 2a 0a bd 94 da e0 3d 26 79 fb bd
       0.008791421 -0.033731677 0.109791905 -0.122789666
0000c0 46 c0 11 3c 6a fc 39 3d 62 57 c0 3d 10 10 1a 3e
       0.008895939 0.045406736 0.09391667 0.1504519
0000d0 bd d8 ac bc 0d c4 28 3e 09 21 27 be 5c 91 2f bd
       -0.021099443 0.16481037 -0.16321196 -0.042863235
0000e0 64 99 92 3d 55 69 ac 3d cb 40 bc bd f9 16 05 bd
       0.07158163 0.08418528 -0.09192046 -0.03249261
0000f0 e7 73 92 bc 1e 08 8e 3c 47 63 58 3d d7 76 29 3e
       -0.017877532 0.017337855 0.052829053 0.1654924
000100 82 a4 75 bd fc f0 33 3d 73 b6 bb 3c aa cd d8 3b
       -0.05997134 0.043930992 0.022914147 0.006616314
000110 53 63 5f 3d d1 c2 29 be 1f 2f 2b 3e 62 6a 13 3e
       0.054538082 -0.16578223 0.16717194 0.1439605
000120 d5 7a ff 3d 2c 58 ad 3d 29 7d 83 3d 06 9f 1d 3d
       0.124746 0.08464083 0.06420357 0.038481735
000130 8d 56 de bc d9 e4 4a 3d 3f 37 6f bd e0 94 2c 3e
       -0.02714088 0.049534652 -0.058402296 0.16853666
000140 5a a1 01 3d e0 cf 30 be f4 f6 8e bd ca 90 bf bd
       0.031648017 -0.17266798 -0.06980696 -0.09353788
000150 c4 a4 a7 3b 5e 6b 8e bd 1e 08 01 be df 4b 5a ba
       0.005116077 -0.069540724 -0.12600753 -0.0008327346
000160 82 85 82 bd 18 1b 10 bb bd dd 73 bc de 38 99 bc
       -0.06373121 -0.0021988805 -0.0148844095 -0.018703874
000170 a6 a2 9a bd 79 8c c8 3d 4c bd d2 bd 5c 5e b5 3d
       -0.07550554 0.09792418 -0.10290012 0.08855888
000180 76 d1 d5 bc bd 33 ce bd 8f 39 f4 bd 76 75 1e 3d
       -0.026100855 -0.10068462 -0.11925041 0.03868624
000190 aa 2b c8 39 e5 fc e8 bc 70 64 ed 3d 22 01 54 bd
       0.00038179505 -0.028440902 0.115914226 -0.051758893
0001a0 7c 60 f2 3d 81 21 07 3d 15 a4 2f be 23 56 07 bd
       0.11834809 0.032990936 -0.17152436 -0.03304113
0001b0 bc 84 6c bd 49 01 b8 3c 6d bc 38 3b 4c 14 18 bd
       -0.057743773 0.02246155 0.0028188482 -0.03712873
0001c0 fd a2 a9 3d 49 d1 da 3a 02 14 de 3a 58 dc 79 bd
       0.08283041 0.0016694452 0.0016943219 -0.06100115
0001d0 bf 81 12 be 76 80 5d 3d 54 1e 0c bc 93 92 de 3b
       -0.14307307 0.054077588 -0.008552153 0.0067923754
0001e0 50 ed a1 bc 9c cf 30 3e 2f 39 be bd 70 9c b2 3c
       -0.01976648 0.17266697 -0.09288251 0.02180311
0001f0 93 88 99 bd 1f b2 55 3d 38 c2 20 3d d2 ec a6 bc
       -0.074967526 0.052171823 0.03924772 -0.020376597
000200 35 b4 a6 bc 49 3b d8 3c 24 45 41 bd 52 83 94 bd
       -0.020349601 0.026395457 -0.04718508 -0.0725161
000210 f4 46 0b 3e d3 24 e7 3d bf 37 38 bd ea 39 54 bd
       0.13601285 0.112863205 -0.04497504 -0.051813044
000220 7b 59 18 be cd c0 13 3d 3e 35 83 3d f7 7e 6a 3d
       -0.14877884 0.03607254 0.064066395 0.05724999
000230 74 0c 17 be f2 3a 21 3e 7a 82 33 be 45 10 58 bd
       -0.14750844 0.15745142 -0.17530242 -0.05274989
000240 32 f1 99 bc 3d 44 b3 3d ce cc 33 be 4a 79 89 bd
       -0.018791769 0.0875325 -0.17558596 -0.06712587
000250 c6 5a b5 bc 11 ad 0a 3e c0 29 ba bd f4 0c e7 bd
       -0.02213801 0.13542582 -0.090899944 -0.112817675
000260 30 ee 8e bd 6b 15 83 3d 4b b1 fa 3d 24 a0 77 3d
       -0.069790244 0.064005695 0.12240847 0.060455456
000270 dd 73 b7 3d 6e 53 d7 bd 1b 2a 93 bd cc 12 58 3d
       0.08957646 -0.1051396 -0.07185765 0.0527523
000280 d2 f0 62 bd 91 25 8d bd 21 cf 51 3d bd c6 36 bb
       -0.055405445 -0.06891931 0.051222924 -0.0027889453
000290 ce 46 03 bd ce 75 06 be fb e9 28 3b 9b a0 b9 3d
       -0.032049946 -0.13130876 0.002577423 0.09063836
0002a0 98 a5 f1 3b a2 2b 1d 3e 12 05 2e be 7b 2b f7 bc
       0.0073744766 0.15348676 -0.16994122 -0.0301721
0002b0 ca 61 d6 3d 02 89 33 3e 51 75 96 3b 7b e5 f4 3d
       0.104678705 0.17532733 0.004591622 0.119578324
0002c0 c2 52 a5 bd 94 18 33 be 01 6f 8c bb fd e7 a3 3d
       -0.080724254 -0.17489845 -0.0042856936 0.08003233
0002d0 02 0e 9c bd 87 28 0d be 84 2b 1a 3e f7 89 f6 3d
       -0.07619859 -0.13784991 0.15055662 0.120380335
0002e0 93 26 76 3d 77 15 2d be 1d 24 06 bb 5d e1 f7 bd
       0.06009538 -0.1690272 -0.0020468303 -0.121035315
0002f0 c3 c5 5e 3d c0 3c d5 3d b4 ac 6c bb ed f3 02 3d
       0.05438782 0.10411978 -0.0036113681 0.031970907
000300 7e a2 0d bd 4b 97 f2 3d f0 4f 2f 3e ad 32 3b 3d
       -0.034578793 0.11845263 0.17120337 0.045702625
000310 71 79 f8 3d 00 96 24 3e e3 0a 90 bd 8b 74 16 3e
       0.12132538 0.16072845 -0.070333265 0.14692895
000320 cd 90 5a 3d 55 3f 01 3e 18 74 7c bc a2 44 3e bb
       0.05336075 0.12621816 -0.015408538 -0.0029032608
000330 4f a0 ae bc 5d f3 f8 3d 82 cc b7 3d 8f bd 63 bd
       -0.021316675 0.12155793 0.08974554 -0.0556007
000340 e9 57 2c be e5 05 09 bd f5 8e 33 be 48 41 a2 3c
       -0.1683041 -0.033452887 -0.17535003 0.01980652
000350 64 e4 0f be 22 ce 12 be d0 f5 42 bd 9a 04 e9 3d
       -0.14051968 -0.14336446 -0.047597706 0.11377831
000360 99 60 ec bd b7 22 38 bd 6d 93 2c 3e f8 07 25 be
       -0.11541862 -0.04495498 0.16853113 -0.16116321
000370 15 26 8c bd d0 5b bc bd 67 32 3e bc aa 5e 41 3d
       -0.06843201 -0.09197199 -0.011608697 0.04720942
000380 12 36 1f 3e 9c 34 d1 3d b9 69 fa 3c e7 a2 c2 bb
       0.1554797 0.102151126 0.03056799 -0.0059398296
000390 f6 8a 1e be a6 29 92 3d c5 11 18 3e e9 c0 91 3d
       -0.15482697 0.0713685 0.14850529 0.07116873
0003a0 87 a2 0e be 13 24 20 3c 08 65 a7 3b 6d 86 e3 3d
       -0.13929187 0.009774226 0.0051084794 0.11109624
0003b0 f8 88 2b bc 59 7d 2f 3e 29 e9 6b bd 54 93 51 3d
       -0.010469668 0.1713766 -0.057595406 0.051165894
0003c0 c8 ba 22 be 92 7c e4 3d e2 f2 eb bc 68 43 5a bc
       -0.15891564 0.111565724 -0.028802339 -0.013321735
0003d0 f4 e8 b3 3d 3d 87 8a bd bc 84 33 be 4e 1f e7 bd
       0.08784667 -0.06764076 -0.17531103 -0.11285268
0003e0 12 06 59 3c 9d 55 42 bd 9a 99 a4 3d 2c 27 a1 bb
       0.013246076 -0.04744493 0.0803711 -0.0049179997
0003f0 82 ba de 3a cd 89 be 3c 9a 67 27 3d 98 3e da 3d
       0.001699284 0.023259068 0.040870287 0.1065647

conv1.fc_self.bias f4 [64]
000000 2b 81 b0 bd cd 38 0e bd 7e 40 86 bd 35 92 4c bd
       -0.08618387 -0.03472214 -0.0655527 -0.04994412
000010 97 ae 29 bd 65 1a d1 bc ef f8 03 bd 06 1a d6 3b
       -0.041426267 -0.025525281 -0.032219823 0.006533864
000020 4f ba 9e 3b 41 9f 33 3c 28 1d f2 3c 95 31 39 bd
       0.004843987 0.010963262 0.029554918 -0.0452133
000030 af e7 68 bd cb 21 14 bd 93 fc 98 bd e2 5c a4 bd
       -0.056861576 -0.03616504 -0.0747005 -0.080255285
000040 83 7d 13 bd 0b 2c ce 3c c9 44 96 bc 3e 37 c8 3b
       -0.03600837 0.025167486 -0.018343346 0.006110101
000050 fb c1 a6 bd 7f 51 df bc a7 d1 e3 bc 1c 09 fd bb
       -0.081424676 -0.02726054 -0.027809931 -0.007722033
000060 05 b2 82 bd 5e 29 5c bb 5c 45 ab 3c b6 70 4d bd
       -0.06381611 -0.0033593993 0.020907097 -0.050156318
000070 c9 61 bc bd b1 75 87 bd 00 4b 9d bd bc e9 57 bd
       -0.091983385 -0.06614245 -0.07680321 -0.05271314
000080 bb 95 f1 bc 61 6e 2d bb 06 88 9e bd 12 15 9b bc
       -0.029490342 -0.0026463496 -0.07740788 -0.018930946
000090 50 a3 81 bd fb 0d 57 bd 91 82 10 bd 21 ea a7 bd
       -0.063299775 -0.052503567 -0.035280768 -0.081989534
0000a0 dd f7 18 bb b8 da 15 bd 48 30 20 bd 57 c5 95 bd
       -0.0023341097 -0.03658554 -0.039108545 -0.0731303
0000b0 aa 71 ba ba fa 74 14 3c a6 43 8c bb 5a 95 8b 3b
       -0.0014224548 0.0090610925 -0.0042805253 0.0042597475
0000c0 19 dc 5c bd 82 fd 18 bd c2 98 2f bd 3d c5 a3 bc
       -0.05392084 -0.03735114 -0.04287029 -0.019991511
0000d0 bd 91 96 bd d6 92 36 bd f3 e5 fb bc e3 00 e8 ba
       -0.07352016 -0.044573627 -0.030749297 -0.001770046
0000e0 93 1a 1a 3b 02 89 7e bd 5d 6d 10 3d 2d a4 fe bc
       0.0023514375 -0.06214238 0.035260547 -0.031084144
0000f0 21 3d 9e bd b6 48 9e bd 95 00 5f bd 4b ab 4a be
       -0.07726503 -0.07728712 -0.054443914 -0.19791906

conv2.fc_neigh.weight f4 [7, 64]
000000 e6 c2 23 3e 03 c8 5b bd 7e 56 a2 3e 73 d4 95 be
       0.15992317 -0.053657543 0.31706613 -0.29263648
000010 7d 75 12 be 65 12 3b be a4 0c 0e be c5 db a1 3d
       -0.1430263 -0.18268736 -0.1387201 0.07903246
000020 31 a8 94 3e 44 c5 7b bf 15 92 66 3e 1d 9d bc 3e
       0.2903457 -0.9834788 0.22516663 0.36838618
000030 af d0 8a 3e d4 a9 60 3e 9b d8 be 3c ec a6 5d be
       0.27112338 0.21939784 0.023296645 -0.21645707
000040 5e 53 b9 be 9e 9d 57 be 14 3a 02 3e 34 85 97 3e
       -0.36196417 -0.2105622 0.12717468 0.29593813
000050 eb 59 80 3e dd 23 76 be d9 57 68 3e cf c7 30 bd
       0.25068602 -0.24037118 0.22689761 -0.043159302
000060 df 25 28 3d 2a 0e bd 3e b4 56 aa 3e 1b 77 e6 3d
       0.04105174 0.3692487 0.33269274 0.11253186
000070 01 ca 99 be 2d 01 a7 3e 01 97 09 3e 79 55 50 3d
       -0.3003693 0.32618085 0.1343651 0.050862763
000080 39 46 9f 3e a5 ae c6 be 4e f2 cf 3d 35 61 c0 3e
       0.31108263 -0.38805118 0.10153638 0.37574163
000090 1d 9f 5f 3e a7 90 25 3e 03 ca cb 3d f3 b3 b5 be
       0.2183804 0.16168462 0.0995064 -0.35488853
0000a0 ac e4 21 be 5f bd 8d bc c2 ae 88 be e0 53 9c 3d
       -0.15809888 -0.017302213 -0.2669583 0.076331854
0000b0 61 eb 36 be bf d7 ae be f3 7f 86 3e 0a 1e 34 3c
       -0.17863227 -0.34148976 0.26269493 0.01099349
0000c0 f0 69 3f 3e d7 86 1e be ed 54 4a 3d 48 e8 bc be
       0.18692756 -0.15481125 0.049397398 -0.36895967
0000d0 40 ac 9d 3d 7d 64 60 bd ae d5 98 3e e6 cb 2f 3e
       0.0769887 -0.054783333 0.29850525 0.17167625
0000e0 4a cd bf 3d 21 76 46 be 7f f5 56 be 51 52 36 3d
       0.09365328 -0.19381 -0.20992087 0.044512097
0000f0 d0 e9 77 bd ac 4a dd 3e a6 44 84 3c 6f 15 4e bd
       -0.060525715 0.43221033 0.016146015 -0.05031341
000100 5e a1 5a be 2e 39 5f be 1f 2d 8a be ed fc 6b be
       -0.21350619 -0.21799156 -0.2698755 -0.23045702
000110 ec af c8 3d 10 a6 b2 3b eb c6 ab 3e 5a a0 84 3e
       0.097991794 0.005451925 0.335502 0.2590359
000120 0c 81 37 3e e7 83 30 be b3 0b a4 be b1 9f fd bc
       0.17920321 -0.17237817 -0.32040176 -0.030959936
000130 2b 57 82 3e 5d a2 a9 bc b9 ff ac be f0 4b 86 bd
       0.2545713 -0.020707304 -0.3378885 -0.06557453
000140 30 97 c3 be 5c 8d 02 3e a1 6d a2 be 51 32 f9 bd
       -0.38201284 0.12749237 -0.31724265 -0.121678
000150 b7 09 f9 3d 4f a2 a7 3e b4 66 7b 3e 56 99 a5 3e
       0.12160056 0.3274102 0.24550897 0.3234355
000160 1a 6c 0b 3c 6c 8f 76 3e 37 e0 99 be 54 77 a4 3e
       0.00850966 0.24078149 -0.30053875 0.3212229
000170 e3 56 6f 3e 78 62 af 3e 3e e3 a1 3e 95 62 60 be
       0.23372988 0.34254813 0.31618685 -0.21912606
000180 0e 58 f4 bc de 52 ea bd b5 88 dd 3d 2c 6f 36 be
       -0.029827144 -0.11441587 0.108170904 -0.17815846
000190 ff 99 94 be c5 23 8d be dd 98 c2 be 18 8a 02 3e
       -0.2902374 -0.27566352 -0.3800725 0.12747991
0001a0 2a 0f a7 3e cc f6 bd be d0 5f 44 be af c7 9b bd
       0.32628757 -0.37102354 -0.19177175 -0.07606446
0001b0 f7 03 9a be e7 8f 1c be b3 1c a3 3e b2 26 94 39
       -0.3008115 -0.1528927 0.31857833 0.0002825759
0001c0 a6 53 94 bd 80 59 98 3e 02 fb b4 be c5 c4 ff 3d
       -0.07242517 0.29755783 -0.35347754 0.12488703
0001d0 55 2a 3d 3e da c0 da b9 ec 2c 12 3c 94 c1 28 bd
       0.1847318 -0.00041723886 0.008921843 -0.041200235
0001e0 aa e3 36 3d 62 62 42 be 17 75 4e 3e 6b a4 09 bd
       0.04465071 -0.18982843 0.20161854 -0.033604067
0001f0 12 ac 38 3e 09 89 a0 be 9a 7d 78 3d c8 29 9b be
       0.1803439 -0.3135455 0.060666658 -0.30305314
000200 5c 81 8f 3d 86 08 2a bc f0 0e 2e bd 36 10 5a be
       0.07007095 -0.010378009 -0.042494714 -0.21295246
000210 9e c9 16 be 53 16 a7 3e ca 3f 80 be 9c 5a 7d be
       -0.14725348 0.3263422 -0.25048667 -0.24741596
000220 b4 ad bb be 68 72 00 3f a0 bf a8 be 14 b6 e1 3d
       -0.36655962 0.5017457 -0.32958698 0.11021057
000230 95 84 7e be d1 b6 b6 3e 01 1c 6d 3e d3 f0 62 3d
       -0.24855264 0.35686353 0.23155214 0.05540545
000240 fa 75 7d be 02 67 73 be 72 90 80 3e 75 b5 a8 3e
       -0.24752036 -0.23769763 0.25110203 0.3295094
000250 42 a4 96 be 67 bb b4 be 15 60 26 be 9b 69 e5 3d
       -0.29422194 -0.35299227 -0.1624759 0.11201783
000260 f2 d5 77 3e c3 e5 db bd bb 12 d1 3e 1f 43 b6 be
       0.24202707 -0.10737183 0.40834603 -0.35598084
000270 46 30 bf 3d 9f 66 13 bd fd 9a 5c be d4 76 7e be
       0.09335379 -0.03598654 -0.21543498 -0.24850017
000280 ec df ad 3c 71 2d a4 bc 5c 0a 0c 3e b8 1d b7 be
       0.021224938 -0.0200412 0.13675827 -0.3576486
000290 b4 22 d2 3e 21 3e 42 be 05 06 f9 bd 42 49 8d 3e
       0.410421 -0.18969013 -0.12159351 0.27594954
0002a0 f2 b9 6c 3d 2c 02 93 be 94 e9 a1 3e 39 2f ac be
       0.05779452 -0.28712595 0.31623518 -0.33629778
0002b0 e3 ab 1f 3e 70 cb 90 be 2d a1 a0 be 99 4a 45 be
       0.15592913 -0.2828021 -0.31372967 -0.19266738
0002c0 14 0c 1e 3e d7 72 4f 3e 3e c3 2e be 12 2a 89 3e
       0.15434295 0.20258652 -0.17066666 0.2678991
0002d0 99 b7 08 3d 95 d8 ed 3d d2 a8 82 be 55 97 b3 3e
       0.033378217 0.11613575 -0.25519425 0.35076395
0002e0 43 2b a2 3e 61 e9 27 3e d0 55 9f be bb dd 83 3e
       0.3167363 0.1639762 -0.31120157 0.25755104
0002f0 e9 0d 48 3e 84 1a 4e be d3 4c 7f bd 60 06 48 3d
       0.19536556 -0.20127302 -0.062329125 0.048834205
000300 b6 c2 9a be f1 f9 d6 be d4 79 b9 be 27 66 a5 bd
       -0.30226678 -0.41987565 -0.3622576 -0.08076125
000310 cf 7b a8 3e ea 6b 7b be 27 ab e3 bc 02 9e 99 be
       0.32906958 -0.24552885 -0.027791573 -0.30003363
000320 b4 44 a1 3e 24 5b 99 3e f9 3d b2 3c 98 25 9c be
       0.3149773 0.29952347 0.021758066 -0.30497432
000330 14 91 27 3d 43 83 8e 3e 16 63 6e be 73 70 96 be
       0.04090984 0.2783452 -0.23279986 -0.29382667
000340 46 37 6f bd 5c d3 e6 3c a6 44 6b 3e 30 bf 42 be
       -0.058402322 0.028176956 0.22975406 -0.19018245
000350 4b 8c bc be 66 52 c1 be e9 4d 78 3c 29 d8 3b be
       -0.36825785 -0.37758178 0.015155294 -0.18344177
000360 ee a9 f0 3d d7 20 5d 3e e4 08 1f be 3c e8 09 3d
       0.117511615 0.21594559 -0.15530735 0.03366874
000370 39 69 42 3d 34 3d d5 be 44 9a 51 3e e1 6c 73 3e
       0.04746363 -0.41648257 0.20469004 0.23772003
000380 6a 2f 7a 3e 98 4a 2e 3e cd 31 88 be 0b bd a0 bd
       0.2443215 0.17020643 -0.26600495 -0.07848557
000390 09 31 80 3e 83 5c 8f 3e 59 82 15 be 55 74 1c bc
       0.2503741 0.28000268 -0.14600505 -0.00954922
0003a0 8c d0 a2 3e 80 f3 e2 bd 30 eb 6b be 86 c5 75 3c
       0.31799734 -0.110816 -0.23038936 0.015000707
0003b0 6f 3d ff bd 1c 3f 24 be a8 a7 5e 3e f7 fc 00 3d
       -0.124628894 -0.160397 0.21743643 0.031491246
0003c0 31 c0 95 bd 96 3e 64 be 6a 70 6c be 3d cd f6 3d
       -0.07312048 -0.222895 -0.23089758 0.12050865
0003d0 92 84 b1 3c 2d 97 a0 3e 8b fd 92 be 19 d2 86 3e
       0.02166966 0.31365338 -0.28709063 0.26332167
0003e0 2f 8e f7 3d bd e2 e7 be 50 1e 19 bd 00 88 2a 3d
       0.12087666 -0.45290175 -0.037382424 0.041633606
0003f0 21 8e 6f be 19 8c 02 3e 81 0a 6f be 67 e2 41 3e
       -0.23394062 0.12748756 -0.2334385 0.18934022

conv2.fc_self.weight f4 [7, 64]
000000 5b 6d 98 3d b9 3f 6e 3d 05 40 e8 be d1 1d 52 be
       0.07442733 0.05816624 -0.45361343 -0.20519187
000010 80 68 ad be 66 a3 61 bc 3a e1 1f be f4 e3 14 3d
       -0.3386879 -0.013771867 -0.15613261 0.036350206
000020 cb 6d 2c 3e da 62 34 bf 0a 45 cc bd ae e9 7c be
       0.16838758 -0.70463336 -0.09974106 -0.24698517
000030 5e 2b 90 be f1 25 67 3d 2d 9d 89 be 6c d8 d5 bd
       -0.28158087 0.056432668 -0.26877728 -0.1044167
000040 9c 4b 98 be 8c 7b 25 3e 37 d8 cb 3e 8c 9c 43 be
       -0.29745185 0.1616041 0.39813396 -0.19102687
000050 cd e2 af be da e4 6b bd 79 d1 a0 3e 95 fc 6a 3e
       -0.34352723 -0.057591297 0.31409815 0.22947915
000060 70 98 2e 3d 78 b3 c9 3e fe 3f 27 be 0f d6 6f 3e
       0.042625844 0.39394736 -0.16333005 0.234215
000070 5a e3 e5 3e b6 3a e7 3e 1e 56 8c 3e 56 7a 33 be
       0.44900018 0.4516198 0.27409452 -0.17527136
000080 ed 5b 50 3d 95 70 c3 be 4c ee 71 3d 01 e7 bf be
       0.050868917 -0.3817183 0.05906515 -0.3748093
000090 ca 76 4b 3e bd b8 d6 be 1c d7 7b 3e 0b b7 98 bd
       0.19869533 -0.4193782 0.24593776 -0.07456788
0000a0 76 f9 e7 bd 5f de af be c6 fc 84 be e3 14 29 39
       -0.11326878 -0.34349343 -0.259741 0.00016124877
0000b0 c6 8d 9a 3e a1 36 4d 3e a2 25 d8 bd fd b5 8e 3e
       0.3018629 0.2004037 -0.10554053 0.2787322
0000c0 ce 4c 2e bd 69 c1 85 3e ea 28 61 be 49 90 2f 3e
       -0.042553715 0.26124123 -0.21988264 0.17144884
0000d0 41 7a fa bc dd fc f9 bd f9 7e 8c be 68 ec c8 3d
       -0.030575873 -0.12206433 -0.27440622 0.09810716
0000e0 1a 5d 28 3d b9 26 8a be 1f d8 36 bc 79 1f b2 3d
       0.041104414 -0.26982668 -0.011159926 0.08697409
0000f0 e0 fb 37 3e 75 29 af be e4 b1 f9 bd ea 50 b9 3e
       0.17967176 -0.34211317 -0.12192133 0.36194545
000100 77 3b 20 be 2e 46 0f bd b1 39 a4 be 30 8d 90 3e
       -0.15647684 -0.034979038 -0.32075265 0.28232718
000110 ef d3 3d bd 2a ef 50 3e 31 73 07 3e 6c a5 34 3e
       -0.046344694 0.20403734 0.13227536 0.17641228
000120 97 67 a5 be 61 7a d1 3e 5b b2 a0 3e 04 c6 0e 3e
       -0.32305595 0.4091368 0.31386074 0.13942724
000130 91 7d 36 3e ce b1 ae be 20 e7 ad 3e 0c 2a 35 3d
       0.17821337 -0.3412003 0.33965397 0.044229552
000140 56 c0 97 3e 93 40 14 be d3 67 e7 3d e4 0e 98 be
       0.29638928 -0.14477758 0.112991 -0.2969886
000150 15 28 15 bd d5 dc 63 3e d9 6c 36 bb 43 6c a1 be
       -0.03641518 0.2225221 -0.0027835874 -0.3152791
000160 9f 84 a5 3c 2c 7e c4 3e 53 ef 81 3d 38 29 af 3e
       0.02020484 0.38377512 0.063444756 0.34211135
000170 fe 93 90 be b6 c4 03 3e 89 ff 18 be a6 e2 15 be
       -0.2823791 0.12868008 -0.14941229 -0.14637241
000180 08 f7 86 bd d5 f1 a3 3c 3e 28 64 bd a8 da 0f be
       -0.06590086 0.020012775 -0.05570244 -0.14048254
000190 57 68 a7 3e 17 68 6c be 93 a1 1b be 1e 8c 6c 3e
       0.32696792 -0.23086582 -0.15198354 0.23100325
0001a0 df 8f 7e 3d 6e 02 8f 3e 4e f0 1f bd fe ed 83 be
       0.062148925 0.2793154 -0.03904753 -0.2576751
0001b0 70 fb f9 bd ac a0 ca bd a3 60 5b 3e 4e e4 a8 be
       -0.12206161 -0.09893927 0.21423583 -0.32986683
0001c0 f1 1c 7d 3e f5 ac 9d bd 0b ed e9 3d d9 e1 95 3e
       0.24718072 -0.076990046 0.114221655 0.2927387
0001d0 09 2f 1c be d3 73 9d bd 18 ef 41 be 58 08 5c be
       -0.15252317 -0.07688107 -0.18938863 -0.21487558
0001e0 bf 57 30 be a5 d5 90 3e 60 13 4b 3e d5 6e d1 be
       -0.17220972 0.28287998 0.1983161 -0.4090487
0001f0 1e f5 bb be c6 f5 9b 3e 28 44 d8 bd c9 af 7e be
       -0.36710447 0.30460948 -0.10559875 -0.24871744
000200 49 dd 98 3e 88 1e 55 be bc 00 91 3e c4 08 d4 bb
       0.29856327 -0.20812428 0.28320873 -0.0064707715
000210 2a e9 e9 be a5 4b d8 bb c1 9d 8c 3e 5a b2 11 3d
       -0.45685703 -0.0066008144 0.27464107 0.03557048
000220 ff 53 56 3b 1a 8c 98 3e 4f c0 b3 be 88 b6 ef bc
       0.0032703874 0.2979439 -0.35107657 -0.029261842
000230 4a 9c cd 3c 04 65 90 3e 28 0e 4f be 0f 8c d3 be
       0.025098938 0.2820207 -0.20220244 -0.41317794
000240 c8 f5 ac be 68 37 1d be e3 81 db 3d 8a 74 ce bd
       -0.33781266 -0.15353167 0.10718133 -0.10080822
000250 05 08 4a 3e 76 c8 45 3e aa 9b 5a be a3 ae 65 3e
       0.19729622 0.19314751 -0.21348444 0.224299
000260 c1 14 92 bd 55 06 81 3e 3d e6 60 be ec 60 14 bd
       -0.07132865 0.25200143 -0.21962829 -0.036225244
000270 35 21 4f be 6b e6 d3 be f8 02 49 bc 43 45 ab 3e
       -0.20227511 -0.41386732 -0.012268774 0.3345128
000280 93 be 9f 3e 2a d4 99 3e 31 f7 90 3e db 70 ca bd
       0.31200084 0.3004468 0.28313592 -0.09884807
000290 74 e5 9c be 33 56 85 be dd 68 48 be 11 a5 26 3e
       -0.3064381 -0.26042327 -0.19571252 0.16273905
0002a0 90 91 86 3e ed fc 99 be 39 24 9b be 88 f5 8d be
       0.2628293 -0.3007578 -0.30301073 -0.27726388
0002b0 a3 fb d3 bd ba fb 9d 3e cb 44 c7 3e f6 6f b8 3e
       -0.1035073 0.30856115 0.38919672 0.3602292
0002c0 1a eb ab 3e 45 38 d9 3c 26 08 aa 3e 8b 10 95 bd
       0.33577806 0.02651609 0.33209342 -0.07278546
0002d0 ed ef cb 3e cb 44 91 be 10 53 68 3b f7 c4 26 be
       0.39831486 -0.28372797 0.00354499 -0.16286074
0002e0 77 8a 10 be 05 ab 2d be fb 55 06 be b1 d4 c4 3e
       -0.1411532 -0.1695977 -0.13118736 0.3844352
0002f0 9c 18 86 3d ca d4 00 3e 4f 6a a9 be d1 a4 08 be
       0.065476626 0.12581173 -0.3308892 -0.13344122
000300 e0 18 cf be ce c2 9a 3e 1d db b8 3d 7d f8 c7 bc
       -0.40448666 0.3022675 0.090261675 -0.02441048
000310 46 60 8e 3e f6 a4 52 3e d6 44 9b be b3 b1 35 be
       0.27807826 0.2057074 -0.30325955 -0.17743568
000320 44 2d 5f be 42 95 99 3e 8a 1d a0 3e f6 f0 6f 3e
       -0.21794611 0.29996687 0.31272537 0.23431763
000330 83 99 e5 be 34 73 bb be ab 4b 9b 3e ed 35 6b be
       -0.44843683 -0.3661133 0.30331168 -0.2296979
000340 dd a8 b8 be 17 d6 50 bd 9a 42 12 3d 06 76 cf bd
       -0.36066332 -0.050985422 0.035708047 -0.10129933
000350 5d d2 f2 3d b8 28 b9 3d e3 74 b0 be 96 5a 9b 3e
       0.1185653 0.090409696 -0.34464177 0.3034255
000360 6d 38 e8 be 7d e7 38 be d1 5b 37 3e 07 59 a0 be
       -0.4535555 -0.18057056 0.17906119 -0.31317922
000370 d3 00 73 3e 8d 1d bb bd 60 7c 84 3d 44 59 af 3e
       0.23730783 -0.09136496 0.06469035 0.34247792
000380 f3 42 8a 3e 4b 72 33 3e e0 4d 16 3e 59 c0 3d be
       0.27004203 0.17524068 0.14678144 -0.18530406
000390 b6 c3 98 3e e2 a4 b9 3e 9a 90 b3 be c9 b6 8b 3e
       0.29836816 0.36258608 -0.3507126 0.27287892
0003a0 9c 36 69 be cc 9d f6 bd cc 72 26 bc b3 da 9b 3e
       -0.22774738 -0.12041816 -0.010159206 0.30440292
0003b0 96 e1 59 3e 4d 52 a6 be 7a a8 70 be 1e be d2 be
       0.2127746 -0.32484666 -0.23501769 -0.41160673
0003c0 cc de a3 3e d5 21 70 3e 6b dc bb 3e 80 c2 c5 bb
       0.32005918 0.23450406 0.36691603 -0.006035149
0003d0 f9 f1 df bd 8d b1 9c 3e 67 c4 8e 3e 4a ce 24 3c
       -0.109348245 0.3060421 0.27884218 0.010058949
0003e0 4a 4e e5 bd fd 0b 82 3d 8a b4 76 3e 32 12 a6 3d
       -0.11196573 0.06349943 0.24092308 0.08108939
0003f0 ae ea 22 bd 39 8b 02 be 6f 53 7f 3e 38 cb 31 3e
       -0.03977459 -0.12748422 0.24934171 0.17362678

conv2.fc_self.bias f4 [7]
000000 20 42 25 40 2e 20 10 3f f3 f8 52 c0 5f 7f c1 bf
       2.582161 0.562991 -3.2964447 -1.5116996
000010 f5 6a 26 3f ba 94 f4 3f 2f e3 96 3f
       0.65006953 1.9107888 1.1788081
