model.pt (torch, 399604 bytes, 6 tensors)

conv1.fc_neigh.weight f4 [64, 768]
0.34756047 -0.67772055 0.563421 0.63911414 -0.52684736 -0.79956526 0.7516848 -0.5333974
-0.5624376 -0.68058735 0.7267667 0.6359066 -0.6516359 -0.7382373 0.6628587 0.61919343
0.5146616 -0.63808095 -0.46925598 0.5483384 -0.63027257 0.577008 -0.38200882 -0.0367068
-0.64928085 -0.6650531 -0.6355047 -0.7044796 -0.5314183 0.85414445 -0.46255547 -0.9822939
0.70738834 0.6914311 -0.5547668 -0.5139309 0.50124943 0.94154465 -0.52880764 -0.5991435
0.50455195 -0.34527913 -0.3918603 0.75177854 -0.595485 0.32329732 0.44376057 -0.2679682
0.61930716 -0.6765284 0.5467157 -0.6576619 -0.26439378 -0.5753059 0.21236913 -0.55854166
0.7057373 -0.63349795 0.5225093 -0.84895355 -0.44057646 -0.7388559 -0.5087356 0.4639661
0.6309191 -0.64055574 -0.5226914 -0.27720904 0.51999515 -0.7338918 0.101412304 0.5348931
0.51145196 0.70127577 -0.65410274 -0.48244464 -0.445797 0.4990615 -0.52423227 0.49916252
0.55572075 0.25481012 -0.36976874 -0.06440853 -0.6030408 0.5848588 -0.7285822 0.6260402
0.065556094 0.6353238 0.39276186 -0.41028747 -0.58597994 -0.6183869 -0.6117844 0.580474
0.47951084 -0.21929172 0.5295508 -0.032278057 0.6795353 -0.3739119 0.5693096 -0.56694096
-0.53670734 -0.7085656 -0.976339 0.50864637 -0.52455217 0.5856294 -0.7301818 0.6630567
0.4595238 0.5497671 -0.64959973 0.4982707 0.5147216 -0.67335206 -0.52574897 -0.56697774
-0.62704736 0.4496581 -0.5165655 -0.46191278 -0.43812984 0.6753085 -0.8560249 0.65342104
0.6936373 -0.5746904 0.5506603 -0.6291683 0.3632178 0.72423404 0.54919696 -0.70698607
-0.6063331 0.2969377 -0.3737344 -0.4848266 0.529207 0.5549412 0.6027124 0.5005003
-0.66083354 0.6297373 0.5019575 -0.6231784 0.5095063 0.59433126 -0.5886328 -0.029674942
-0.9949523 -1.035956 -0.17918412 -0.68738455 0.59713936 -0.73306525 0.40866357 0.82123154
0.5318874 -0.54888654 0.44077006 -0.50481874 0.67722034 -0.4122695 -0.64858556 0.5987106
0.55012685 0.791479 -0.8658412 -0.53304815 -0.6109196 -0.6090824 -0.74535054 0.6672783
-0.66683644 0.47406983 -0.9005975 -0.90236187 -0.7545517 -0.7217173 0.72917724 0.16867796
-0.860401 -0.618429 -0.59060186 0.43937078 -0.6489673 0.5796496 0.5180839 0.45710573
0.5332298 0.67987233 -0.697001 0.44905502 0.72512907 -0.60593134 -0.62152195 0.5911648
0.41531435 0.49906465 -0.48166284 0.71311384 0.6063209 0.60058427 0.6606806 -0.5864626
-0.832637 -0.28113875 -0.56912917 0.6685932 -0.6533665 -0.50174695 -0.73333997 0.5764677
0.90142584 -0.515627 0.10460631 -0.06153331 0.74147815 -0.5285971 0.44500476 0.48775503
-0.3557916 -0.38194796 -0.6264335 0.58663046 -0.6669663 -0.77361035 -0.56287414 0.025019487
-0.7314442 -0.9903904 -0.92018986 0.6468107 -0.47466657 0.4873755 0.6582958 0.610684
-0.57027316 -0.08431776 -0.29236466 -0.2427025 0.6721638 0.8100514 -0.55495024 -0.5508419
-0.11805139 1.1335291 0.57373345 0.62471974 0.3892544 -0.5879303 0.761543 -0.68704146
00000000: 72f3 b13e 187f 2dbf 5c3c 103f fc9c 233f
00000010: 78df 06bf 4fb0 4cbf 6a6e 403f bb8c 08bf
00000020: e9fb 0fbf f93a 2ebf 620d 3a3f c6ca 223f
00000030: 9cd1 26bf 1ffd 3cbf 1cb1 293f 7683 1e3f
00000040: ddc0 033f 4659 23bf 5242 f0be e85f 0c3f
00000050: 8b59 21bf ccb6 133f a996 c3be df59 16bd
00000060: 4537 26bf ec40 2abf 70b0 22bf c658 34bf
00000070: 080b 08bf 36a9 5a3f 12d4 ecbe 9d77 7bbf
00000080: 6717 353f a101 313f 3205 0ebf fa90 03bf
00000090: e251 003f 1209 713f f05f 07bf 7861 19bf
000000a0: 512a 013f 6dc8 b0be eaa1 c8be 8f74 403f
000000b0: b471 18bf 3a87 a53e 9634 e33e 2133 89be
000000c0: ea8a 1e3f f730 2dbf 8ff5 0b3f 885c 28bf
000000d0: 9f5e 87be 3f47 13bf 4b77 593e 96fc 0ebf
000000e0: 33ab 343f ec2c 22bf 2bc3 053f 0555 59bf
000000f0: 3d93 e1be a925 3dbf 7f3c 02bf f78c ed3e
00000100: ea83 213f 76fb 23bf 1bcf 05bf 58ee 8dbe
00000110: 671e 053f 55e0 3bbf 41b1 cf3d c1ee 083f
00000120: 84ee 023f cf86 333f 4773 27bf fc02 f7be
00000130: 813f e4be fd84 ff3e 1634 06bf 3b92 ff3e
00000140: b743 0e3f 7976 823e 5452 bdbe 9fe8 83bd
00000150: e260 1abf 4eb9 153f 5d84 3abf 2c44 203f
00000160: 4642 863d 95a4 223f 1518 c93e 3311 d2be
00000170: c802 16bf 9b4e 1ebf e79d 1cbf f299 143f
00000180: 7282 f53e 028e 60be a490 073f ff35 04bd
00000190: 07f6 2d3f 6171 bfbe 46be 113f 0b23 11bf
000001a0: a765 09bf 8e64 35bf 5af1 79bf a636 023f
000001b0: 0d49 06bf cfeb 153f 32ed 3abf 15be 293f
000001c0: b446 eb3e 89bd 0c3f 2b4c 26bf 561d ff3e
000001d0: cbc4 033f cd60 2cbf 7c97 06bf 7425 11bf
000001e0: 2d86 20bf 9639 e63e a33d 04bf d57f ecbe
000001f0: 8e52 e0be 05e1 2c3f 7324 5bbf 9a46 273f
00000200: 3792 313f e91e 13bf 13f8 0c3f 2c11 21bf
00000210: aff7 b93e 6767 393f 2c98 0c3f 0afd 34bf
00000220: a538 1bbf 3808 983e 1e5a bfbe 313b f8be
00000230: 1c7a 073f a010 0e3f 5c4b 1a3f ca20 003f
00000240: 632c 29bf 7736 213f 4980 003f 9f88 1fbf
00000250: 016f 023f 1826 183f a4b0 16bf dd18 f3bc
00000260: 32b5 7ebf 359a 84bf 0b7c 37be 6ff8 2fbf
00000270: 20de 183f 2aaa 3bbf 5a3c d13e 3b3c 523f
00000280: c629 083f d483 0cbf 9dac e13e cd3b 01bf
00000290: 505e 2d3f fd14 d3be b409 26bf 1945 193f
000002a0: 1dd5 0c3f 5e9e 4a3f c5a7 5dbf d875 08bf
000002b0: 3a65 1cbf d3ec 1bbf 4bcf 3ebf c0d2 2a3f
000002c0: cbb5 2abf 48b9 f23e 8f8d 66bf 3001 67bf
000002d0: 4d2a 41bf 77c2 38bf 5cab 3a3f eab9 2c3e
000002e0: 3d43 5cbf 5d51 1ebf af31 17bf 35f5 e03e
000002f0: b922 26bf eb63 143f 25a1 043f c309 ea3e
00000300: c081 083f 1d0c 2e3f a86e 32bf 8aea e53e
00000310: 0fa2 393f 511e 1bbf 101c 1fbf 9456 173f
00000320: 15a4 d43e 6785 ff3e 839c f6be a18e 363f
00000330: d937 1b3f e4bf 193f 5d22 293f 6a22 16bf
00000340: b327 55bf 6bf1 8fbe 73b2 11bf ed28 2b3f
00000350: 0743 27bf 7d72 00bf 2bbc 3bbf 6393 133f
00000360: d8c3 663f 2200 04bf d53b d63d 5a0a 7cbd
00000370: 83d1 3d3f 2452 07bf aad7 e33e 07bb f93e
00000380: 512a b6be af8e c3be f25d 20bf 6a2d 163f
00000390: 4ebe 2abf 540b 46bf 8518 10bf abf5 cc3c
000003a0: ed3f 3bbf 3a8a 7dbf 9091 6bbf 6395 253f
000003b0: 7f07 f3be 4889 f93e 1386 283f c955 1c3f
000003c0: 6cfd 11bf caae acbd d2b0 95be 0187 78be
000003d0: ed12 2c3f 875f 4f3f 3811 0ebf fa03 0dbf
000003e0: edc4 f1bd 7b17 913f 32e0 123f a2ed 1f3f
000003f0: 5a4c c73e 9a82 16bf 7bf4 423f f3e1 2fbf

conv1.fc_self.weight f4 [64, 768]
0.104388766 -0.66449815 0.72476923 0.71996903 -0.803803 -0.87545127 0.7893209 -0.3521078
-0.6862705 -0.6268076 0.6324101 0.4592138 -0.53988236 -0.5793952 0.48566467 0.66462994
0.59950763 -0.5103076 -0.48011005 0.54702044 -0.60807353 0.51730394 -0.122497596 -0.072472885
-0.65865636 -0.8388423 -0.74116474 -0.71999955 -0.68816406 0.8261484 -0.86051345 -1.0804647
0.5500324 0.55872035 -0.70948476 -0.28782287 0.46133065 0.07024947 -0.45998096 -0.59025896
0.5694243 -0.30211458 -0.5198772 0.9037624 -0.49433842 0.34651932 0.4512225 -0.36789918
0.45630473 -0.7508623 0.50417876 -0.6889304 -0.43551674 -0.59710413 0.3833206 -0.24571633
0.67014045 -0.665589 0.5857606 -1.0606477 -0.44898024 -0.6725163 -0.45122993 0.2891508
0.27941686 -0.7084513 -0.6128731 -0.5431038 0.4949912 -0.5882689 -0.15886661 0.5509215
0.46227264 0.62270075 -0.73744 -0.5648446 -0.40956149 0.4751986 -0.5697076 0.49672472
0.4604233 -0.0691401 -0.21154281 -0.012180858 -0.41230762 0.60655236 -0.715703 0.5656408
-0.04433662 0.53807527 0.36859065 -0.23201784 -0.6167774 -0.42511347 -0.66944957 0.5873247
0.39111483 -0.19238466 0.56397015 -0.24323331 0.6465762 -0.3472255 0.7252322 -0.5342808
-0.54438365 -0.68200123 -1.0572718 0.52009624 -0.5396061 0.4296457 -0.6895623 0.64858407
0.6093632 0.65499496 -0.71530145 0.58681023 0.542214 -0.70074004 -0.5273298 -0.6312585
-0.09848772 0.4623936 -0.57909906 -0.4241288 -0.60076237 0.524992 -0.8584185 0.6056307
0.59365326 -0.5639341 0.48903066 -0.5255594 0.24617764 0.6580172 0.58559775 -0.62947446
-0.81842613 0.08193071 -0.43842602 -0.5333648 0.5135556 0.42524105 0.95607495 0.46377084
-0.5975685 -0.12638569 0.60925406 -0.71811724 0.6534376 0.6814875 -0.64966273 -0.33207992
-0.8398128 -0.9237633 -0.19919103 -0.4689624 0.60809976 -0.78493476 0.10799704 0.80609024
0.39811215 -0.47021756 0.5194629 -0.5743746 0.4489461 -0.54989904 -0.67927593 0.67157215
0.4743653 0.7827342 -0.35395253 -0.615553 -0.45300934 -0.69036084 -0.7171322 0.6991399
-0.7332954 0.530546 -0.8058037 -0.967253 -0.4820455 -0.66725904 0.5725354 -0.22729416
-0.88886595 -0.8446115 -0.6765326 0.49734443 -0.6994029 0.4722721 0.6371788 0.6553375
0.61755764 0.474205 -0.5473965 0.47465202 0.77710366 -0.4914186 -0.70904505 0.624422
0.5020206 0.4949991 -0.35184342 0.605415 0.475746 0.4483762 0.5934044 -0.48204845
-1.0020711 0.0032093176 -0.47272018 0.42096958 -0.506425 -0.40690792 -0.73329216 0.29838076
0.80218494 -0.4409386 0.1824933 0.060595762 0.5258889 -0.49878517 0.5819694 0.47552145
-0.2652792 -0.39161822 -0.4084291 0.49141797 -0.67260665 -0.7035182 -0.7232009 0.033017375
-0.693992 -0.14922874 -0.72803795 0.7223132 -0.6711933 0.5371256 0.5524333 0.51205736
-0.31418917 0.39962205 -0.39137977 -0.23955987 0.63343185 0.9344914 -0.5408331 -0.6745856
-0.4069103 0.95782787 0.5861939 0.5416118 0.4604423 -0.3688746 0.7538023 -0.6801865
00000000: c7c9 d53d 8d1c 2abf 7a8a 393f e44f 383f
00000010: 09c6 4dbf 931d 60bf ef10 4a3f 7947 b4be
00000020: 6caf 2fbf 7676 20bf a1e5 213f 121e eb3e
00000030: bb35 0abf 3e53 14bf 0aa9 f83e 3025 2a3f
00000040: 5579 193f 85a3 02bf fcd0 f5be 8809 0c3f
00000050: b5aa 1bbf 086e 043f 05e0 fabd aa6c 94bd
00000060: b49d 28bf 5ebe 56bf f9bc 3dbf e451 38bf
00000070: 852b 30bf 767e 533f 9c4a 5cbf ab4c 8abf
00000080: ecce 0c3f 4c08 0f3f cba0 35bf 855d 93be
00000090: 8833 ec3e f4de 8f3d a082 ebbe 361b 17bf
000000a0: cac5 113f c3ae 9abe ac16 05bf f95c 673f
000000b0: ed19 fdbe fb6a b13e a306 e73e 485d bcbe
000000c0: c6a0 e93e 8338 40bf dc11 013f be5d 30bf
000000d0: 0dfc debe d1db 18bf 9942 c43e 109d 7bbe
000000e0: 538e 2b3f 0a64 2abf 68f4 153f 4ec3 87bf
000000f0: bde0 e5be 072a 2cbf 9c07 e7be 930b 943e
00000100: ba0f 8f3e 105d 35bf 40e5 1cbf da08 0bbf
00000110: 7d6f fd3e ca98 16bf eead 22be 3109 0d3f
00000120: 00af ec3e 5169 1f3f dec8 3cbf a899 10bf
00000130: 0bb2 d1be 3b4d f33e 5bd8 11bf b452 fe3e
00000140: 9abc eb3e 5399 8dbd ae9e 58be 3992 47bc
00000150: fc19 d3be 0447 1b3f 5038 37bf d6cd 103f
00000160: 519a 35bd 4dbf 093f eab7 bc3e 1696 6dbe
00000170: 20e5 1dbf 79a8 d9be 0c61 2bbf e95a 163f
00000180: 3440 c83e 7c00 45be 5960 103f 2712 79be
00000190: 0586 253f 8ac7 b1be d1a8 393f a0c6 08bf
000001a0: ba5c 0bbf a297 2ebf af54 87bf 0725 053f
000001b0: a023 0abf 85fa db3e 2887 30bf 9b09 263f
000001c0: 3aff 1b3f c0ad 273f ff1d 37bf 3239 163f
000001d0: 89ce 0a3f b363 33bf 16ff 06bf 289a 21bf
000001e0: eeb3 c9bd dbbe ec3e d63f 14bf 6927 d9be
000001f0: 90cb 19bf e065 063f 51c1 5bbf 9d0a 1b3f
00000200: a9f9 173f fc5d 10bf 3a62 fa3e 108b 06bf
00000210: fe15 7c3e d173 283f bce9 153f 3d25 21bf
00000220: 6084 51bf 4acb a73d 6079 e0be 988a 08bf
00000230: 6178 033f 32b9 d93e 54c1 743f 5f73 ed3e
00000240: 40fa 18bf 406b 01be 13f8 1b3f 88d6 37bf
00000250: b047 273f f775 2e3f 4c50 26bf 6106 aabe
00000260: f9fd 56bf c07b 6cbf bcf8 4bbe d71b f0be
00000270: 6dac 1b3f 7cf1 48bf 8d2d dd3d ee5b 4e3f
00000280: 5bd5 cb3e 5bc0 f0be 85fb 043f 370a 13bf
00000290: 43dc e53e 2fc6 0cbf 07e5 2dbf 27ec 2b3f
000002a0: 02e0 f23e 4561 483f 4439 b5be e294 1dbf
000002b0: d7f0 e7be 7dbb 30bf fa95 37bf d5fa 323f
000002c0: 3fb9 3bbf ddd1 073f 2749 4ebf e59d 77bf
000002d0: abce f6be 7dd1 2abf ae91 123f cdbf 68be
000002e0: b88c 63bf 7638 58bf 3e31 2dbf eea3 fe3e
000002f0: 120c 33bf a6cd f13e 261e 233f 33c4 273f
00000300: 4218 1e3f ffca f23e 2d22 0cbf 9705 f33e
00000310: 44f0 463f 389b fbbe fa83 35bf 1fda 1f3f
00000320: 6c84 003f 8670 fd3e d224 b4be 7afc 1a3f
00000330: fb94 f33e 9191 e53e 5ae9 173f 0ecf f6be
00000340: de43 80bf 6a53 523b 6108 f2be 5389 d73e
00000350: 12a5 01bf 3c56 d0be 09b9 3bbf 5dc5 983e
00000360: fe5b 4d3f b4c2 e1be 86df 3a3e 4333 783d
00000370: a8a0 063f c560 ffbe f2fb 143f 8c77 f33e
00000380: add2 87be 2f82 c8be 9e1d d1be 239b fb3e
00000390: f32f 2cbf c519 34bf b223 39bf 3a3d 073d
000003a0: 76a9 31bf 6bcf 18be b260 3abf 85e9 383f
000003b0: 53d3 2bbf 1081 093f 456c 0d3f 3116 033f
000003c0: 67dd a0be 439b cc3e ee62 c8be 2f4f 75be
000003d0: 9728 223f d43a 6f3f 0a74 0abf a4b1 2cbf
000003e0: 8c56 d0be 3534 753f ce10 163f 12a7 0a3f
000003f0: 18bf eb3e 22dd bcbe 30f9 403f b420 2ebf

conv1.fc_self.bias f4 [64]
-0.7968215 0.02020031 -0.37521732 -0.52950954 -0.6212706 -0.50622123 -0.8778188 -0.51670986
-0.8675401 -0.7315348 -0.0045634415 -0.7772435 -0.47517416 -0.5596316 0.15781127 -0.41856852
-0.7868653 -0.5942301 -0.755606 -0.4432424 -0.8565137 -0.8745784 -0.836412 -0.64682406
-0.5367312 -0.32561573 -0.43277135 -0.9158693 -0.86772704 -0.45805833 -0.79870814 -0.5104314
-0.26076055 -0.8576433 -0.6415662 -0.39259836 -0.77705413 -0.25587815 -0.083680004 -0.79762965
-0.38537738 -0.46637675 -0.66229296 -0.8178264 -0.34795737 -0.85371345 -0.4104163 -0.5739863
-0.9588929 -0.78625834 -0.44092932 -0.5144198 -0.8511902 -0.001357992 -0.842927 -0.70355606
-0.51524496 -0.9272544 -0.015391015 -0.76048434 -0.8244198 -0.57987684 -0.026011515 -0.8138999
00000000: 7efc 4bbf 1f7b a53c 7c1c c0be f08d 07bf
00000010: 970b 1fbf b797 01bf bcb8 60bf 1947 04bf
00000020: 1c17 5ebf dd45 3bbf ec88 95bb 6ef9 46bf
00000030: 074a f3be 0444 0fbf 4799 213e 9d4e d6be
00000040: 0170 49bf 771f 18bf 656f 41bf abf0 e2be
00000050: 7b44 5bbf 5fe4 5fbf 191f 56bf 4396 25bf
00000060: 3767 09bf 1bb7 a6be 3594 ddbe 6976 6abf
00000070: 5c23 5ebf 9f86 eabe 2378 4cbf a2ab 02bf
00000080: 6882 85be 838e 5bbf af3d 24bf a702 c9be
00000090: 05ed 46bf 7602 83be 6c60 abbd 7531 4cbf
000000a0: 2f50 c5be efc8 eebe 088c 29bf 125d 51bf
000000b0: 7827 b2be f78c 5abf 1622 d2be c4f0 12bf
000000c0: 017a 75bf 3a48 49bf 7dc1 e1be 04b1 03bf
000000d0: 9ae7 59bf a6fe b1ba 10ca 57bf 401c 34bf
000000e0: 18e7 03bf 8b60 6dbf 992a 7cbc 1aaf 42bf
000000f0: 2d0d 53bf cf72 14bf 1a16 d5bc be5b 50bf

conv2.fc_neigh.weight f4 [7, 64]
0.28395757 0.22744681 0.52528334 0.4820545 0.13103029 0.40789756 0.21717973 0.43667293
0.6224738 0.17692521 0.2948813 -0.57024616 -0.30383265 0.1407589 -0.44342202 0.24978234
0.41038254 0.5418537 0.4006192 0.25074694 0.5455781 1.0038295 0.47539005 0.2270389
-0.52098364 0.15033662 -0.18314807 0.58044213 0.4972878 0.21994443 0.42371133 -0.05404868
-0.038358808 0.5599244 0.5061024 0.30204144 0.51392883 0.5947278 0.47422287 0.61045814
-0.40286833 0.58841896 0.46385542 -0.6431497 0.23438919 0.8021779 0.2898609 0.86070687
0.7728093 0.60418266 0.5431319 0.41512874 0.9456155 0.39337945 1.0490012 0.44859746
-0.48058358 0.5095198 -0.18917698 0.098573506 1.096561 0.23787116 -0.062154755 0.06320369
0.49537316 0.3280018 0.9025314 0.2629889 0.9666067 0.15945075 0.88337284 0.2034216
0.50245476 0.69052464 -0.21748613 0.67093205 0.1690531 -0.044669323 0.5693716 1.045936
0.76329786 0.6963774 0.6151159 0.35383904 1.0518055 0.5580839 0.5453277 0.68171406
0.38229018 0.39399225 0.92629606 0.6152767 1.027058 0.5093785 0.5408611 0.61487174
1.0400981 1.1167978 1.0752959 0.50672626 0.17972258 0.7941608 0.71180755 0.8801481
-0.107493155 1.161652 0.40843755 0.28212243 0.54966223 0.51700115 -0.085244864 0.9143344
0.95106125 0.36148584 1.17503 0.68695194 0.61716133 -0.17709649 0.93833035 -0.31622365
0.54506016 0.02131229 0.24491027 0.05744781 0.59140414 -0.3099116 -0.30943844 -0.22230965
-0.12187843 -0.108134545 -0.03998308 0.25404173 0.6003702 0.45029902 -0.007673808 -0.24527082
-0.3870238 0.08433936 0.08324503 0.5888402 0.5990848 0.9993411 0.4045001 0.2944017
-0.43436736 0.34628966 0.68810314 0.5822178 -0.51300424 -0.2506021 -0.5982072 0.37174806
0.7861799 0.791456 0.7828902 -0.24196379 -0.26592422 0.6286488 -0.55360836 0.7227775
0.50174373 -0.2807654 -0.52267516 0.4844884 -0.6709419 0.19436799 0.21748441 -0.21003817
0.6995242 0.38984108 0.17244396 0.43986222 0.24972734 -0.26258197 0.3794522 0.51150334
-0.45006612 -0.49520418 0.37206295 0.109177135 -0.3828407 -0.28658047 -0.24357714 0.054031733
0.39887184 0.77352864 0.95739865 0.7528345 -0.2456689 0.21808375 -0.3421198 0.65937555
0.6231637 0.39743274 -0.49151203 1.193522 -0.5206317 -0.42930272 0.4846689 0.20473574
1.0326266 1.013007 0.09540179 0.5368548 0.25650194 -0.37687418 0.1676419 -0.07000615
0.50446475 -0.4707562 1.1240163 -0.2783271 0.46993238 0.81156486 0.64426816 -0.48872006
0.24871154 -0.3249219 -0.3178971 0.6564751 0.6242151 -0.2628343 0.37346697 -0.54264325
-0.7016408 0.7145177 0.8647043 -0.24675916 0.58124983 -0.435987 0.60828716 0.69964
0.5774105 -0.2509851 -0.34873596 0.46887743 -0.45175758 0.7808039 -0.31339034 0.24492458
0.41012064 0.47114256 -0.18934034 -0.53496444 1.133668 0.26644656 0.4186783 -0.18816632
0.897419 0.7836515 0.27263394 -0.13007808 1.1452057 -0.7293378 0.120918274 1.0450484
00000000: e362 913e d1e7 683e f878 063f d9cf f63e
00000010: ce2c 063e f3d7 d03e 5d64 5e3e 9893 df3e
00000020: 715a 1f3f e22b 353e affa 963e a7fb 11bf
00000030: f48f 9bbe 1a23 103e 3608 e3be f1c6 7f3e
00000040: a91d d23e edb6 0a3f f61d cd3e e761 803e
00000050: 02ab 0b3f 7c7d 803f 5366 f33e e37c 683e
00000060: 2f5f 05bf d8f1 193e 2b8b 3bbe db97 143f
00000070: 829c fe3e 1d39 613e b1f0 d83e 2662 5dbd
00000080: 201e 1dbd 3557 0f3f ed8f 013f 2da5 9a3e
00000090: d790 033f 1540 183f 57cd f23e fc46 1c3f
000000a0: c244 cebe a0a2 163f 757e ed3e 75a5 24bf
000000b0: b803 703e 885b 4d3f a668 943e 4957 5c3f
000000c0: d5d6 453f b7ab 1a3f b10a 0b3f c18b d43e
000000d0: db13 723f 0869 c93e ac45 863f 91ae e53e
000000e0: 0d0f f6be e46f 023f 9cb7 41be e8e0 c93d
000000f0: 1c5c 8c3f 7f94 733e fc95 7ebd f070 813d
00000100: 8da1 fd3e daef a73e 4c0c 673f 7ba6 863e
00000110: 8973 773f 0f47 233e b924 623f c04d 503e
00000120: e0a0 003f 39c6 303f afb4 5ebe 34c2 2b3f
00000130: 411c 2d3e 2ef7 36bd 56c2 113f 3be1 853f
00000140: 7d67 433f ca45 323f 3c78 1d3f 642a b53e
00000150: 90a1 863f 96de 0e3f 999a 0b3f d084 2e3f
00000160: 8abb c33e 5ab9 c93e bd21 6d3f c682 1d3f
00000170: a376 833f a166 023f e075 0a3f 3c68 1d3f
00000180: ef21 853f 3bf3 8e3f 4ca3 893f d0b8 013f
00000190: 3209 383e 1f4e 4b3f 0539 363f 6351 613f
000001a0: 5f25 dcbd 03b1 943f ba1e d13e 5a72 903e
000001b0: aab6 0c3f 305a 043f dc94 aebd d211 6a3f
000001c0: c078 733f ac14 b93e 6267 963f 15dc 2f3f
000001d0: 49fe 1d3f c858 35be 6b36 703f 11e8 a1be
000001e0: 1089 0b3f 1d97 ae3c c2c9 7a3e 654e 6b3d
000001f0: 4366 173f bcac 9ebe b76e 9ebe 24a5 63be
00000200: 669b f9bd a575 ddbd 4cc5 23bd c211 823e
00000210: ddb1 193f 988d e63e 9174 fbbb 4628 7bbe
00000220: fc27 c6be 1dba ac3d 5f7c aa3d 3bbe 163f
00000230: 9f5d 193f d1d4 7f3f a31a cf3e d2bb 963e
00000240: 6665 debe e14c b13e 8727 303f 3a0c 153f
00000250: 3f54 03bf eb4e 80be 1b24 19bf c355 be3e
00000260: 1643 493f dc9c 4a3f 7e6b 483f 5bc5 77be
00000270: 3827 88be 21ef 203f 47b9 0dbf f207 393f
00000280: 4772 003f 7cc0 8fbe 0ace 05bf dd0e f83e
00000290: d9c2 2bbf 6708 473e 3cb4 5e3e 3f14 57be
000002a0: 0514 333f 4099 c73e 2695 303e 9f35 e13e
000002b0: 86b8 7f3e 2571 86be 8f47 c23e e2f1 023f
000002c0: 116f e6be 678b fdbe 097f be3e 4398 df3d
000002d0: b203 c4be adba 92be 496c 79be 6150 5d3d
000002e0: ee38 cc3e f905 463f 1418 753f c3b9 403f
000002f0: a190 7bbe 5951 5f3e 542a afbe d6cc 283f
00000300: a887 1f3f 4e7c cb3e 77a7 fbbe 54c5 983f
00000310: 1e48 05bf 91cd dbbe 8626 f83e 3fa6 513e
00000320: 1c2d 843f 37aa 813f 0462 c33d 516f 093f
00000330: 3954 833e a7f5 c0be 51aa 2b3e 625f 8fbd
00000340: 9a24 013f f506 f1be c4df 8f3f e480 8ebe
00000350: fa9a f03e b7c2 4f3f c2ee 243f 8439 fabe
00000360: 3dae 7e3e 2a5c a6be 69c3 a2be c10e 283f
00000370: 90cc 1f3f 3892 86be 1037 bf3e abea 0abf
00000380: bb9e 33bf a2ea 363f 435d 5d3f 6fae 7cbe
00000390: cacc 143f b039 dfbe b5b8 1b3f 9b1b 333f
000003a0: 2dd1 133f 1e81 80be 858d b2be b410 f03e
000003b0: c54c e7be c4e2 473f b374 a0be 82cd 7a3e
000003c0: 55fb d13e 9939 f13e 6fe2 41be 6ef3 08bf
000003d0: 081c 913f af6b 883e 015d d63e acae 40be
000003e0: 40bd 653f 629d 483f ad96 8b3e 3033 05be
000003f0: 1a96 923f e2b5 3abf 00a4 f73d 25c4 853f

conv2.fc_self.weight f4 [7, 64]
0.41257358 0.18552203 0.5441821 0.5218942 0.33329543 -0.0233624 0.47220907 0.4124125
0.8344173 0.39257702 0.35775247 -0.0071147867 -0.5935161 -0.30321077 -0.3315926 0.516581
0.53025764 0.51061976 0.23137486 0.43724608 0.9404638 1.0154718 0.48429012 0.38073444
-0.48296827 -0.49907812 -0.026561983 0.67163455 0.6595911 0.46480486 0.40398872 -0.21342722
-0.04918857 0.5077018 0.8128013 -0.29734662 0.7056928 0.8023884 0.46917313 1.1205902
-0.60541296 0.80565876 0.37285614 0.061609786 0.6610565 0.49877575 0.6205874 1.0413089
0.41229948 0.8104019 0.39117387 0.46851537 0.5536626 -0.11421582 0.39522073 0.53598994
-0.41619137 0.043144338 -0.61534214 0.009208335 0.63201857 0.62186855 0.1237912 0.34635082
0.9362858 0.15323399 0.4754558 0.71879435 0.7729121 0.22863398 0.5840195 0.8409266
0.52643543 0.6134008 -0.072995394 0.2079443 0.8963793 0.61687714 0.7831462 0.63603854
0.7204409 1.0337402 0.3924472 0.46895114 0.7067834 0.6530275 1.1220505 0.4139843
0.62562543 0.56074744 0.36453623 0.88009757 0.67748296 0.06855611 0.44563323 0.6414169
0.754085 0.4395026 0.5328213 0.7120536 0.3491633 0.3053622 0.8751595 0.42671698
-0.033780653 0.6475063 -0.038606074 0.020401038 0.8839781 0.39796185 -0.21566054 0.47025207
0.52142817 0.51021546 0.66381156 0.50450224 0.7606015 -0.13908151 0.5866021 -0.54103863
0.11389325 0.20438862 0.12520556 -0.1985025 1.1264279 -0.71350604 0.3392165 0.5176204
-0.0752594 -0.30818844 0.5134074 0.20172532 0.19982927 0.49705493 -0.11973615 0.09479392
-0.49210027 0.15942083 0.02562719 0.54656833 0.8707569 0.5700341 0.47649586 0.3959295
-0.9150732 0.26503205 0.44792494 0.706177 -0.41759768 -0.71653646 -0.4570997 0.1665506
0.6001679 1.0891218 0.42804992 -0.13577448 -0.7540508 0.5969794 -0.58431125 0.6512452
0.26467803 -0.88885325 -0.086347386 0.3969451 -0.56472236 0.4503476 -0.4354021 -0.44995162
0.834911 0.08654071 0.8579511 0.44338524 0.3140585 -0.6643377 0.89003736 0.6663961
-0.61394477 0.30722174 0.41995573 0.8842101 -0.64221144 -0.20308594 -0.27125964 0.36685053
0.15249608 0.17275444 1.0275095 0.33973432 -0.22658439 0.5912954 0.079524845 0.28905132
0.927239 -0.1292013 -0.5127443 1.2060124 -0.40742016 -0.43086237 1.1859463 0.5134043
0.67673004 1.2067884 0.35998097 0.32434255 0.16805361 -0.62354946 0.09788738 -0.7408424
0.9730446 -0.3795832 0.6360982 -0.49136463 0.67812383 0.5858275 0.3949209 -0.2490623
0.53342605 -0.7994473 -0.57526 0.99995077 0.7651716 -0.29032862 0.8135668 -0.31794727
-0.21999185 0.54351187 1.0781245 -0.7026615 0.42287967 -0.23757789 0.5296047 0.7262155
0.47528404 -0.3632134 -0.088193744 0.41821468 -0.33103135 0.5502912 -0.36575252 -0.40020683
1.1156334 0.9089631 -0.303818 -0.11832178 0.54188156 -0.23444915 1.0876368 -0.13463983
0.2455852 0.79677916 0.3529793 -0.1776117 0.596778 -0.53961545 -0.07413788 1.203268
00000000: d83c d33e 7df9 3d3e 854f 0b3f dc9a 053f
00000010: b3a5 aa3e 8162 bfbc 63c5 f13e bb27 d33e
00000020: 5f9c 553f dbff c83e 552b b73e 2823 e9bb
00000030: acf0 17bf 713e 9bbe 81c6 a9be a73e 043f
00000040: f7be 073f fab7 023f 88ed 6c3e b8de df3e
00000050: 3cc2 703f fbfa 813f e0f4 f73e a0ef c23e
00000060: 9e47 f7be 2b87 ffbe 8498 d9bc 3ef0 2b3f
00000070: f6da 283f e7fa ed3e 9cd7 ce3e aa8c 5abe
00000080: f479 49bd bff8 013f bf13 503f d13d 98be
00000090: 49a8 343f 5469 4d3f 7637 f03e 806f 8f3f
000000a0: 58fc 1abf a73f 4e3f 00e7 be3e 8b5a 7c3d
000000b0: 003b 293f 895f ff3e d1de 1e3f 9c49 853f
000000c0: eb18 d33e 8076 4f3f f147 c83e 3fe1 ef3e
000000d0: d5bc 0d3f fce9 e9bd 5f5a ca3e a336 093f
000000e0: 0917 d5be 1eb8 303d 1087 1dbf 8ede 163c
000000f0: f8cb 213f c732 1f3f 3e86 fd3d e554 b13e
00000100: 6db0 6f3f 5fe9 1c3e f16e f33e e802 383f
00000110: 91dd 453f 071f 6a3e 4d82 153f f746 573f
00000120: 79c4 063f d607 1d3f 9c7e 95bd 5aef 543e
00000130: 1d79 653f a9eb 1d3f 457c 483f 6cd3 223f
00000140: d16e 383f 9951 843f d7ee c83e 5d1a f03e
00000150: c2ef 343f cf2c 273f 5a9f 8f3f c0f5 d33e
00000160: fd28 203f 258d 0f3f 7ea4 ba3e 134e 613f
00000170: 866f 2d3f 2567 8c3d 0a2a e43e e633 243f
00000180: b70b 413f 7c06 e13e fa66 083f 2549 363f
00000190: 88c5 b23e 6f58 9c3e 740a 603f a67a da3e
000001a0: 955d 0abd f9c2 253f 6721 1ebd 1420 a73c
000001b0: 644c 623f a8c1 cb3e 1ed6 5cbe e1c4 f03e
000001c0: 517c 053f 7b9d 023f 8eef 293f 0f27 013f
000001d0: c8b6 423f 626b 0ebe 8e2b 163f 8281 0abf
000001e0: dd40 e93d 404b 513e e335 003e 3d44 4bbe
000001f0: ca2e 903f 55a8 36bf c9ad ad3e c582 043f
00000200: 9a21 9abd e0ca 9dbe ab6e 033f 1591 4e3e
00000210: 0ba0 4c3e fc7d fe3e 3a38 f5bd 5123 c23d
00000220: 91f4 fbbe 373f 233e 1df0 d13c e7eb 0b3f
00000230: ede9 5e3f c1ed 113f 44f7 f33e 45b7 ca3e
00000240: 3d42 6abf 48b2 873e 6b56 e53e 04c8 343f
00000250: 5dcf d5be ef6e 37bf f908 eabe 3e8c 2a3e
00000260: 9aa4 193f 5868 8b3f 5c29 db3e 7708 0bbe
00000270: 7909 41bf a4d3 183f 6c95 15bf 01b8 263f
00000280: e183 873e e38b 63bf e6d6 b0bd 633c cb3e
00000290: a591 10bf f693 e63e 06ed debe 0f60 e6be
000002a0: babc 553f 413c b13d afa2 5b3f 6403 e33e
000002b0: 47cc a03e 0912 2abf 7dd9 633f ef98 2a3f
000002c0: 7c2b 1dbf 2b4c 9d3e 7004 d73e 985b 623f
000002d0: f867 24bf c3f5 4fbe 8be2 8abe d5d3 bb3e
000002e0: ef27 1c3e 8ae6 303e 6e85 833f a8f1 ad3e
000002f0: bd05 68be 235f 173f ecdd a23d 89fe 933e
00000300: 895f 6d3f 584d 04be 3643 03bf 9d5e 9a3f
00000310: 6099 d0be fe99 dcbe 17cd 973f 776e 033f
00000320: 2e3e 2d3f 0b78 9a3f 6d4f b83e 3a10 a63e
00000330: 3f16 2c3e f0a0 1fbf 2e79 c83d d9a7 3dbf
00000340: 7319 793f bb58 c2be 55d7 223f 2594 fbbe
00000350: 8699 2d3f cbf8 153f 1233 ca3e 300a 7fbe
00000360: 9c8e 083f 94a8 4cbf 3d44 13bf c6fc 7f3f
00000370: 49e2 433f f4a5 94be ea45 503f fcc9 a2be
00000380: 8b45 61be 9823 0b3f fcff 893f a0e1 33bf
00000390: af83 d83e 9e47 73be 2c94 073f 42e9 393f
000003a0: 6e58 f33e 1bf7 b9be ec9e b4bd 3c20 d63e
000003b0: f17c a9be e2df 0c3f ea43 bbbe e9e7 ccbe
000003c0: 13cd 8e3f ceb1 683f 088e 9bbe b052 f2bd
000003d0: c0b8 0a3f 7013 70be af37 8b3f 06df 09be
000003e0: b07a 7b3e b8f9 4b3f b4b9 b43e d7df 35be
000003f0: 71c6 183f 3d24 0abf 9ad5 97bd b004 9a3f

conv2.fc_self.bias f4 [7]
0.11910611 0.121454135 0.15085454 0.2443602 0.19279265 0.16285013 0.2062294
00000000: e7ed f33d f2bc f83d 9d79 1a3e 8f39 7a3e
00000010: 706b 453e 2fc2 263e cd2d 533e
