model.pt (torch, 399604 bytes, 6 tensors)

conv1.fc_neigh.weight f4 [64, 768]
0	0xbee4f300	-0.44716644
1	0xbde5474b	-0.11195239
2	0x3d65c01d	0.056091417
3	0x3cc4f11e	0.024040755
4	0xbea6b5dd	-0.32560626
5	0xbeb4d956	-0.35322064
6	0x3eb765db	0.35819897
7	0x3f2207d5	0.632932
8	0xbdcfc4f9	-0.101449914
9	0x3e87eb9d	0.26546946
10	0x3e6f5890	0.23373628
11	0xbee3e1cf	-0.44508216
12	0xbe8948fc	-0.26813495
13	0xbe82c148	-0.25538087
14	0xbf1a718f	-0.60329527
15	0x3d5f07fd	0.054450978
16	0x3e23d555	0.15999348
17	0xbeadb1c3	-0.33924684
18	0xbf12bffa	-0.57324183
19	0x3e6b8d71	0.23003174
20	0x3f589d30	0.8461485
21	0xbeddb699	-0.43303373
22	0xbdb02ca8	-0.086022675
23	0xbd8ebfe7	-0.06970196
24	0xbde3aa5c	-0.11116478
25	0xbe8b336e	-0.27187675
26	0x3e8d1372	0.27553898
27	0xbe826dba	-0.2547434
28	0xbe7beb85	-0.24601562
29	0x3e5c0e5a	0.2148985
30	0x3f168ca2	0.5880834
31	0x3e111159	0.14166774
32	0x3ea71216	0.32630986
33	0x3e8c6325	0.2741939
34	0x3f7a1b82	0.97698224
35	0x3f52f307	0.8240208
36	0xbf1dd25e	-0.6164912
37	0xbe539e90	-0.20665956
38	0xbcd0e0f2	-0.025497887
39	0xbd9ee1ef	-0.07757937
40	0x3e3bc391	0.18336321
41	0x3e98f1e1	0.2987204
42	0xbef48b6a	-0.47762614
43	0xbeb9f572	-0.36320072
44	0xbe30c87d	-0.1726398
45	0x3d9b534f	0.07584249
46	0x3e51cf67	0.20489274
47	0x3f1864de	0.5952891
48	0x3d2ac2f1	0.041689817
49	0xbe46745d	-0.19380327
50	0x3dac52cf	0.08414232
51	0xbdeebdab	-0.1165727
52	0xbead0382	-0.3379174
53	0x3eb29e90	0.348866
54	0xbe72747f	-0.23677252
55	0x3e3787ac	0.17922848
56	0x3ea63f53	0.32470188
57	0x3edadfcc	0.42748868
58	0xbf158640	-0.58407974
59	0xbea8a55c	-0.3293866
60	0xbe9f9026	-0.31164664
61	0xbddc2018	-0.10748309
62	0x3e9f7a34	0.3114792
63	0xbf5a6719	-0.85313565
64	0x3eb13d80	0.34617233
65	0xbe36ba4e	-0.17844507
66	0x3f0bd054	0.5461476
67	0x3f0c805b	0.54883355
68	0x3daac3fa	0.08338161
69	0xbe33886c	-0.1753251
70	0xbe93eee9	-0.2889321
71	0x3e98080a	0.29693633
72	0x3d6ab8c8	0.057305127
73	0x3e0e334e	0.13886759
74	0xbe11212c	-0.1417281
75	0xbeba622c	-0.36403024
76	0x3ef9b892	0.48773628
77	0xbe2eff9e	-0.17089698
78	0xbe5525d0	-0.20815206
79	0xbd411a2d	-0.047144104
80	0xbea5c65b	-0.32377896
81	0xbec9dba3	-0.39425382
82	0x3f0fc844	0.56164956
83	0x3e66c400	0.22535706
84	0xbe651168	-0.22369921
85	0xbeaa72b3	-0.33290634
86	0x3f0056ff	0.50132746
87	0xbef60433	-0.4805008
88	0xbef50594	-0.47855818
89	0x3e3d054e	0.18459055
90	0xbe6bf9c3	-0.23044495
91	0x3ebb04e2	0.36527163
92	0xbec37d94	-0.38181746
93	0x3ea4a238	0.32155013
94	0xbe029cb4	-0.1275509
95	0x3ea0f7f7	0.31439182
96	0xbebd0854	-0.36920416
97	0x3eaa8606	0.33305377
98	0xbe995acb	-0.29952082
99	0x3f24afdf	0.6433086
100	0x3e8fb42f	0.28067157
101	0x3e9ac529	0.30228546
102	0x3ec88a5a	0.39168054
103	0x3ef408d7	0.47662994
104	0x3efeec3c	0.49789608
105	0xbe231ea0	-0.15929651
106	0x3ec20eb3	0.3790184
107	0xbd0969d1	-0.03354818
108	0x3ea8f536	0.3299958
109	0xbf407456	-0.75177515
110	0xbeb2864d	-0.34868088
111	0x3e479a1b	0.1949238
112	0x3d670316	0.056399427
113	0xbef05f66	-0.46947783
114	0xbe780013	-0.24218778
115	0xbf6f54f2	-0.9348899
116	0xbf3c6cfd	-0.736038
117	0x3f310ab1	0.6915694
118	0xbdf6ce24	-0.12051037
119	0xbe1a5100	-0.15069962
120	0xbf037854	-0.5135548
121	0x3ebda0e1	0.37036803
122	0xbe865175	-0.26234022
123	0x3e912117	0.28345558
124	0x3f283b5b	0.6571557
125	0x3e5aca38	0.21366203
126	0xbe90c762	-0.28277117
127	0xbf7d16da	-0.98862994
128	0x3ec21cc8	0.37912583
129	0x3f40ce62	0.75314915
130	0x3e4a459b	0.19753115
131	0xbe712a8f	-0.23551391
132	0x3e6399f6	0.222267
133	0x3daf039e	0.08545612
134	0xbdd963ea	-0.1061476
135	0xbe928552	-0.2861734
136	0xbe859e30	-0.2609725
137	0x3ec281a7	0.37989542
138	0x3f12b45f	0.57306474
139	0xbe823720	-0.25432682
140	0x3e8ba363	0.27273092
141	0xbe68847f	-0.22706793
142	0x3e13aa68	0.14420474
143	0x3e132697	0.1437019
144	0x3ed92a12	0.4241491
145	0xbed52e9a	-0.41637117
146	0xbe7a51d5	-0.24445279
147	0xbeb4970d	-0.35271493
148	0x3e9aead9	0.302573
149	0x3e721256	0.23639807
150	0xbdd15ec3	-0.102231525
151	0x3f05a1e6	0.5220016
152	0xbe3d5804	-0.18490607
153	0xbebb0b85	-0.36532226
154	0xbd1b26fa	-0.037878968
155	0x3e7f8712	0.24953869
156	0xbedc1414	-0.42984068
157	0xbe3b8389	-0.18311895
158	0xbe922e82	-0.28551108
159	0x3eecdbcb	0.4626144
160	0x3e68e32b	0.22742908
161	0xbe867db9	-0.26267794
162	0xbe9bd401	-0.30435184
163	0x3c9871c2	0.018608931
164	0x3e1db742	0.15401939
165	0xbe5a4077	-0.21313654
166	0xbe05e21c	-0.13074535
167	0x3e5515b5	0.20809062
168	0x3e75b797	0.23995815
169	0x3e2a6627	0.1664053
170	0xbeb4e84e	-0.35333484
171	0x3eeeed71	0.46665528
172	0xbd6ad8cc	-0.05733566
173	0xbe2ba76b	-0.16763084
174	0x3f075387	0.5286183
175	0x3e112022	0.14172414
176	0xbe857feb	-0.26074156
177	0xbec878fe	-0.3915481
178	0xbe9722d0	-0.29518747
179	0xbeced09c	-0.4039353
180	0x3e2ab3ae	0.16670105
181	0xbe548b1f	-0.20756195
182	0x3e935a17	0.2877967
183	0x3e4ea6a9	0.20180763
184	0xbe95e743	-0.29278
185	0x3f050f62	0.519766
186	0xbe37da27	-0.17954312
187	0x3e42c995	0.1902221
188	0xbe7f335f	-0.2492194
189	0x3dd34303	0.10315516
190	0x3ead7102	0.3387528
191	0x3f0fbcf2	0.5614768
192	0x3d6451ca	0.055742063
193	0x3e791463	0.24324183
194	0xbe915d08	-0.2839129
195	0xbeb99c97	-0.3625228
196	0xbd47c4df	-0.048771735
197	0xbe0d5f8b	-0.13805978
198	0xbea3375a	-0.31878167
199	0x3e7f1366	0.24909744
200	0x3d9e1048	0.07717949
201	0x3dff883b	0.12477156
202	0x3ebc7971	0.36811402
203	0x3daeea87	0.08540826
204	0x3e8ce034	0.27514803
205	0x3eb40790	0.3516202
206	0x3eabd091	0.3355756
207	0x3c320509	0.010865458
208	0xbe8c91a6	-0.2745487
209	0x3ed2e3f4	0.4118954
210	0x3e932f22	0.28746897
211	0xbeb12acc	-0.34602964
212	0xbe9e6b8e	-0.30941433
213	0xbe9c34f7	-0.3050916
214	0xbea4faba	-0.3222254
215	0xbd73344d	-0.05937605
216	0xbe8878ba	-0.26654607
217	0xbe5f581d	-0.21810956
218	0xbe5768d3	-0.21036081
219	0x3e866f6c	0.26256883
220	0xbf269cf7	-0.6508326
221	0xbd058ee7	-0.032606985
222	0x3e843805	0.2582399
223	0x3e8df011	0.2772222
224	0x3e9c903a	0.30578786
225	0x3f3b2768	0.73107004
226	0x3f14410a	0.5791174
227	0xbf745a3b	-0.9545018
228	0x3e841f6d	0.25805226
229	0x3ecd800f	0.40136763
230	0x3f0024fe	0.50056446
231	0xbebb8f6d	-0.36632863
232	0xbe0a631a	-0.13514367
233	0x3e8b5814	0.27215636
234	0xbedb91e4	-0.42884743
235	0x3e902f0a	0.28160888
236	0xbe78bba3	-0.24290328
237	0xbf087d0c	-0.53315806
238	0x3e45602e	0.19274971
239	0xbd79225c	-0.060823783
240	0x3f46d007	0.77661175
241	0xbec03158	-0.37537646
242	0x3e92e000	0.28686523
243	0x3c42173a	0.011846358
244	0x3e468565	0.19386823
245	0x3e221648	0.15828812
246	0xbdb1ca90	-0.08681214
247	0xbea37150	-0.31922388
248	0xbec88506	-0.3916399
249	0x3e980bb7	0.29696438
250	0xbdc21ded	-0.09478364
251	0xbe640a71	-0.22269608
252	0xbf2b28a2	-0.66858876
253	0xbe1ccc91	-0.15312411
254	0x3eba554d	0.36393204
255	0xbdb60b36	-0.08888857

conv1.fc_self.weight f4 [64, 768]
0	0xbf6667cf	-0.9000215
1	0x3d63546a	0.055500425
2	0x3ee18a9e	0.4405107
3	0xbd166100	-0.0367136
4	0xbebd1918	-0.36933208
5	0xbe9dd584	-0.30826962
6	0x3e96bc92	0.29440743
7	0x3eee6fa8	0.46569562
8	0xbe792db3	-0.24333839
9	0x3f0c3660	0.5477047
10	0x3eacfc4d	0.3378624
11	0xbdf57cd3	-0.11986699
12	0xbe01ff1f	-0.12694977
13	0xbedca2a1	-0.43092826
14	0xbf2a0c3c	-0.6642492
15	0x3dc66395	0.096869625
16	0x3e03840d	0.12843342
17	0x3e5bff9a	0.21484223
18	0xbf21e305	-0.6323703
19	0x3e852599	0.26005247
20	0x3f5486ea	0.8301836
21	0xbf206ade	-0.62663066
22	0xbe841f53	-0.25805148
23	0x3ec2cd41	0.3804722
24	0xbe68448b	-0.22682397
25	0xbe91d9c7	-0.28486463
26	0x3efa4b5b	0.48885617
27	0xbe9951ae	-0.2994513
28	0xbeabf333	-0.33583984
29	0x3eb7e2e4	0.3591529
30	0x3f294e42	0.66135037
31	0x3efb1014	0.49035704
32	0x3ebacc54	0.36484015
33	0x3e10d999	0.14145507
34	0x3f30a596	0.69002664
35	0x3f48e2bc	0.7847097
36	0xbf04096d	-0.5157688
37	0xbe9ceb62	-0.30648333
38	0x3d3e1724	0.046408787
39	0xbe178364	-0.14796215
40	0x3e789289	0.24274649
41	0x3ed6b68a	0.4193614
42	0xbd78d8ef	-0.06075376
43	0xbe41b6ed	-0.18917437
44	0xbe9cf781	-0.3065758
45	0x3db9d5aa	0.09073956
46	0x3dfcbcb9	0.123406835
47	0x3e86f518	0.26358867
48	0x3e1be5ac	0.15224332
49	0xbeb7b64e	-0.35881275
50	0x3e2c19b0	0.16806674
51	0xbe8679f7	-0.26264927
52	0xbe7ebd4a	-0.24876896
53	0x3f1b9c57	0.6078543
54	0xbe8a5e8e	-0.27025265
55	0xbe9a2e34	-0.30113375
56	0x3e79c6c7	0.24392234
57	0x3f2514cd	0.64484864
58	0xbeff94d6	-0.4991824
59	0xbf0de371	-0.55425173
60	0xbe939873	-0.28827247
61	0xbe891eb0	-0.26781225
62	0x3ebbb593	0.36661968
63	0xbd9d832c	-0.07691035
64	0x3d2df3ca	0.042468823
65	0xbe83a39d	-0.25710765
66	0x3f38aba6	0.72136915
67	0x3e109c9c	0.14122242
68	0x3dfea1fe	0.12433241
69	0xbec9decc	-0.39427793
70	0xbd3a33a9	-0.045459423
71	0x3e9ee0f7	0.3103101
72	0x3dd2b8ec	0.10289177
73	0x3e96b8cf	0.29437873
74	0xbe9c34b3	-0.30508956
75	0xbeae2a6a	-0.34016734
76	0x3f213b74	0.62981343
77	0xbd0b8fce	-0.03407269
78	0xbe8be64b	-0.27324137
79	0x3d5bd948	0.053674012
80	0xbf0861c4	-0.5327418
81	0xbf0d4be0	-0.551939
82	0x3ef7e1c0	0.4841442
83	0x3e017e1b	0.12645762
84	0xbe5736e1	-0.21017028
85	0xbec9ed69	-0.39438942
86	0x3ec71877	0.38885853
87	0xbf2d7088	-0.67749834
88	0xbf3530c0	-0.7077751
89	0x3eab6b80	0.33480453
90	0xbf39a317	-0.7251448
91	0x3efb6352	0.49099213
92	0xbe586a78	-0.21134365
93	0x3ef656cb	0.48113093
94	0xbe888292	-0.26662117
95	0x3e6d5f35	0.2318085
96	0x3f0013f7	0.50030464
97	0x3ee91f5a	0.45531732
98	0x3e9d9a0d	0.30781594
99	0x3f5c9909	0.86171013
100	0x3e008b88	0.12553227
101	0x3f053c12	0.52044785
102	0x3eb2902e	0.34875625
103	0x3ebe2028	0.37133908
104	0xbdc211bd	-0.094760396
105	0xbd48a0b2	-0.048981376
106	0x3ea90b73	0.33016548
107	0x3e247fe9	0.16064419
108	0xbd76c63e	-0.060247652
109	0xbebafbac	-0.36520135
110	0xbe47a01c	-0.1949467
111	0x3e982777	0.2971761
112	0x3eab79b9	0.33491305
113	0xbe2fe78c	-0.17178172
114	0xbe7b6124	-0.24548775
115	0xbe9f9f64	-0.31176293
116	0xbf46652b	-0.7749812
117	0x3ed7a51c	0.42118156
118	0xbe458212	-0.19287899
119	0xbe41b7d9	-0.18917789
120	0xbe756e8b	-0.2396795
121	0x3e4fa4da	0.2027773
122	0xbe671efc	-0.22570413
123	0x3f09a6ef	0.53770345
124	0x3f0c5002	0.5480958
125	0x3e4cfde7	0.20018731
126	0xbf22f74d	-0.636586
127	0xbf746cfa	-0.95478785
128	0x3e5d4d55	0.21611531
129	0x3f421e91	0.7582789
130	0x3dc82057	0.09771793
131	0xbe6b73bf	-0.22993372
132	0x3eb80923	0.3594447
133	0x3d881551	0.06644691
134	0x3de1b672	0.11021127
135	0xbe6676a3	-0.22506194
136	0xbec07ad6	-0.37593716
137	0x3e728735	0.2368439
138	0x3de9515b	0.113924704
139	0xbe45ffd2	-0.19335869
140	0x3e8c82bc	0.27443492
141	0xbee12abe	-0.43977922
142	0x3ec10473	0.37698707
143	0x3dd4bf03	0.10387995
144	0x3e9903db	0.29885754
145	0xbf073998	-0.52822256
146	0xbeb59ddd	-0.35472003
147	0xbe9e8857	-0.30963394
148	0x3e96bbc7	0.29440138
149	0x3d8a7a54	0.067616135
150	0xbe6b5775	-0.22982581
151	0x3f38582f	0.7200956
152	0xbe7a3416	-0.24433932
153	0xbe7c39c8	-0.24631417
154	0x3e815c61	0.25265792
155	0x3ed3b892	0.41351753
156	0xbed6de54	-0.41966498
157	0xbe6aefce	-0.2294304
158	0xbeeac0c4	-0.45850194
159	0x3e144738	0.14480293
160	0x3df18df8	0.117946565
161	0xbe08da53	-0.13364534
162	0xbec0a242	-0.37623793
163	0xbea11d06	-0.31467456
164	0x3e9e4e43	0.30919084
165	0xbe77d7d7	-0.2420343
166	0xbe88202d	-0.26587048
167	0x3e99d770	0.30047178
168	0x3e494bd5	0.19657834
169	0x3e5541b8	0.20825851
170	0xbe8047a9	-0.25054672
171	0x3ec863ad	0.39138547
172	0xbe590f53	-0.21197252
173	0xbce973db	-0.028497627
174	0x3e8ea2fa	0.27858716
175	0x3e709855	0.2349561
176	0xbe943461	-0.28946212
177	0xbf10cffe	-0.5656737
178	0xbec54446	-0.3852865
179	0xbe88e74a	-0.2673896
180	0x3eadc9b1	0.3394294
181	0xbe99ea8a	-0.30061752
182	0x3e8c180a	0.2736209
183	0x3d9c4919	0.0763113
184	0xbeafd219	-0.3433998
185	0x3f25653e	0.6460761
186	0xbd6f7847	-0.058464315
187	0x3ed948fc	0.42438495
188	0xbe0abd5b	-0.13548796
189	0xbd76ff2c	-0.060301945
190	0x3eb100c1	0.34570888
191	0x3f2eb94e	0.682515
192	0x3e047659	0.12935771
193	0x3e66f28d	0.22553463
194	0xbe99bc5a	-0.30026513
195	0xbead7e1d	-0.3388528
196	0x3dbd8359	0.09253568
197	0xbe20ac54	-0.15690738
198	0xbea2f1c9	-0.31825092
199	0x3e97cce7	0.29648516
200	0xbec08a0c	-0.3760532
201	0x3e0bcc60	0.13652182
202	0x3f0fbf5d	0.5615137
203	0x3e8ccd32	0.27500302
204	0x3e6503c6	0.2236472
205	0x3e8676a4	0.2626239
206	0x3e83c2a8	0.25734448
207	0xbdf9450c	-0.12171373
208	0xbe8648fd	-0.2622756
209	0x3f077e44	0.5292704
210	0x3e550957	0.20804344
211	0xbea0b88c	-0.31390798
212	0xbe072432	-0.13197401
213	0xbe8ceabd	-0.2752284
214	0xbde49d06	-0.11162762
215	0x3e9607b0	0.2930274
216	0xbef4574d	-0.47722855
217	0xbe8ae223	-0.27125654
218	0xbefc4abd	-0.4927577
219	0x3efddda9	0.49583176
220	0xbf18abb7	-0.59637016
221	0xbe3d48b9	-0.18484773
222	0x3e871306	0.263817
223	0x3cda00db	0.026611736
224	0x3e8d7f42	0.27636153
225	0x3f18517b	0.5949933
226	0x3ebaa3ee	0.36453193
227	0xbf30ecb7	-0.691112
228	0x3ed26204	0.41090405
229	0x3eb46801	0.352356
230	0x3f4bd773	0.79625624
231	0xbef2fce4	-0.47458565
232	0xbe9e8f34	-0.3096863
233	0x3e7cff26	0.24706706
234	0xbad8a12b	-0.0016527524
235	0x3ecdbdcd	0.4018387
236	0xbe9e9ecb	-0.30980524
237	0xbf4e9ce6	-0.8070816
238	0x3e9dfb4f	0.30855796
239	0xbe9e0984	-0.30866635
240	0x3eea8b03	0.45809183
241	0xbf058a9a	-0.52164614
242	0x3e8307eb	0.25591978
243	0xbe8ff484	-0.28116238
244	0x3e914c28	0.28378415
245	0x3f028eae	0.5099896
246	0xbe5f6b5f	-0.21818303
247	0xbe8eac32	-0.2786575
248	0xbe52d9e0	-0.20590925
249	0x3ec94a82	0.39314657
250	0x3c0f466b	0.008744816
251	0xbe326e1d	-0.17424817
252	0xbed5aa16	-0.41731328
253	0x3caac459	0.020845579
254	0x3e67b7b2	0.22628668
255	0xbe9e9695	-0.3097426

conv1.fc_self.bias f4 [64]
0	0xbe6b6680	-0.2298832
1	0x3d0f7457	0.03502306
2	0xbef3f7b9	-0.47649935
3	0x3cd6e887	0.026233925
4	0xbf01d75c	-0.5071924
5	0xbef6acb9	-0.48178652
6	0xbeb89abf	-0.36055562
7	0xbef3e223	-0.47633466
8	0xbef83509	-0.48477963
9	0xbeab6c3e	-0.3348102
10	0xbeec924c	-0.46205366
11	0xbefdd6b4	-0.49577868
12	0xbee7c72a	-0.45269138
13	0xbeee3571	-0.46525148
14	0xbe589a83	-0.21152692
15	0xbf0241d5	-0.508817
16	0x3d0479e9	0.032342825
17	0x3c2eb622	0.010663541
18	0xbec6884a	-0.38775855
19	0xbf0982f3	-0.5371544
20	0xbf0bae01	-0.54562384
21	0xbf039150	-0.51393604
22	0xbef451e7	-0.47718737
23	0xbf0a790c	-0.5409095
24	0xbf08933d	-0.5334967
25	0xbf070e75	-0.52756435
26	0xbee4f634	-0.44719088
27	0xbf0159ff	-0.5052795
28	0xbca61e36	-0.020278078
29	0x3ccf6dc8	0.025320902
30	0xbd74642c	-0.059665844
31	0xbedb0aeb	-0.42781767
32	0xbf06577e	-0.5247725
33	0x3bc0a9d8	0.005879622
34	0xbef97d91	-0.48728612
35	0xbefcf7a2	-0.4940768
36	0xbf09e83f	-0.53870004
37	0xbea72469	-0.32644966
38	0xbea233dc	-0.3168019
39	0xbe665b54	-0.22495776
40	0xbef85b54	-0.48507178
41	0xbf0163ba	-0.50542796
42	0xbcfe3e34	-0.03103552
43	0xbed28e90	-0.41124392
44	0xbf08a8a0	-0.533823
45	0xbe975c5e	-0.29562658
46	0xbc879721	-0.016551556
47	0xbf0504b6	-0.51960313
48	0xbea9763e	-0.33098024
49	0xbeb628da	-0.35578042
50	0xbe4cfd19	-0.20018424
51	0x3cfc60b7	0.030807836
52	0xbee0e474	-0.43924296
53	0xbe795cce	-0.24351808
54	0xbef3bd5c	-0.47605407
55	0x3c7547bb	0.014970715
56	0xbef6b4bd	-0.48184767
57	0xbf050001	-0.5195313
58	0xbf00aa50	-0.50259876
59	0xbcdd08bd	-0.026981706
60	0x3c7a2e42	0.015269818
61	0x3c8588b1	0.016300531
62	0xbef7ba82	-0.48384482
63	0x3c7a11ae	0.015263004

conv2.fc_neigh.weight f4 [7, 64]
0	0x3e7571c4	0.2396918
1	0x3ea2fa70	0.31831694
2	0x3f3bedc3	0.7340967
3	0x3e9428df	0.28937432
4	0x3e9800ab	0.2968801
5	0x3efed479	0.4977148
6	0x3d864efb	0.06558033
7	0x3f0354fa	0.5130154
8	0x3e6954ac	0.22786206
9	0x3ee7075c	0.45122802
10	0x3e9cbcf3	0.30612907
11	0xbf2bbff9	-0.670898
12	0x3f0d98f2	0.553115
13	0x3dec2009	0.11529548
14	0x3e6ed3e1	0.23323013
15	0x3e5c4a9b	0.21512835
16	0xbdf7baf8	-0.12096208
17	0x3ddfbf0b	0.109251104
18	0x3f58ce72	0.8469001
19	0x3e32a495	0.17445596
20	0x3f0e80e9	0.5566545
21	0x3eda8fe1	0.42687896
22	0xbe28ed2b	-0.16496722
23	0x3f27103f	0.65259165
24	0x3dd543ef	0.10413348
25	0x3f638562	0.888754
26	0x3f073d9e	0.52828395
27	0x3f48ea51	0.7848254
28	0xbecbe5f0	-0.39823866
29	0xbeb362e9	-0.350364
30	0x3d5cd0b2	0.053909965
31	0x3f22c126	0.6357597
32	0x3f08f038	0.53491545
33	0xbdc5a4c2	-0.09650566
34	0x3ed37647	0.41301176
35	0x3f4a76a0	0.7908726
36	0xbf4b5a29	-0.7943445
37	0x3e063ada	0.13108388
38	0x3f040821	0.51574904
39	0xbddfdcbf	-0.10930776
40	0x3de26e48	0.11056191
41	0x3e88c004	0.26708996
42	0xbe1d8959	-0.15384425
43	0x3f734bac	0.9503734
44	0x3ec45c4a	0.3835166
45	0x3f3554e8	0.7083268
46	0x3d818d40	0.063257694
47	0x3ed5f967	0.4179184
48	0x3f0ffee1	0.5624829
49	0xbdce3ba1	-0.10069967
50	0x3e66fe0f	0.22557853
51	0xbe3ddb9b	-0.18540804
52	0x3eb73864	0.3578521
53	0x3e10afd5	0.14129575
54	0x3f0a791c	0.5409105
55	0x3e2aaf49	0.16668428
56	0x3ed46a9b	0.41487584
57	0x3f4d1fbb	0.8012654
58	0x3f5d3216	0.8640455
59	0xbeb60148	-0.35547853
60	0x3cc6604e	0.024215844
61	0xbda0c56b	-0.078501545
62	0x3f107572	0.5642921
63	0x3e677824	0.22604424
64	0x3ee7c743	0.45269212
65	0x3c9b08df	0.018925129
66	0xbead90cc	-0.33899534
67	0xbdad3b5a	-0.08458586
68	0x3f4e72c6	0.8064388
69	0x3e3ccce8	0.1843754
70	0x3eec5ec9	0.46166065
71	0x3f4630a4	0.7741797
72	0x3e8c13c2	0.27358824
73	0x3f43e920	0.76527596
74	0x3f48bced	0.7841328
75	0xbf130979	-0.5743633
76	0x3f6f50d4	0.9348271
77	0xbec947a6	-0.39312476
78	0x3f28f29d	0.659952
79	0x3eb9365a	0.3617428
80	0xbeb49c9d	-0.35275736
81	0x3eb7cffa	0.3590086
82	0x3e99fa75	0.30073896
83	0x3ede940a	0.4347232
84	0x3e0f919c	0.1402039
85	0x3f39d9b0	0.7259779
86	0xbf0467c5	-0.5172084
87	0x3f264fe7	0.6496567
88	0xbd33a334	-0.043856815
89	0x3e8a5178	0.2701528
90	0x3ee1f0a6	0.44128913
91	0x3f596164	0.8491423
92	0x3ec2fbec	0.38082826
93	0xbeac81e8	-0.3369286
94	0x3eeed6da	0.46648294
95	0x3f11952b	0.5686824
96	0x3dd272ef	0.10275828
97	0x3ed228fb	0.4104689
98	0x3eeec445	0.46634117
99	0x3f05e7d8	0.5230689
100	0xbdec2824	-0.11531094
101	0x3f410c05	0.75408965
102	0x3f0de897	0.5543303
103	0x3de8251e	0.113352045
104	0x3f63b4b6	0.8894762
105	0xbcab0d73	-0.020880437
106	0x3ed029c3	0.40656862
107	0x3ee93177	0.4554555
108	0x3f339ad6	0.70158136
109	0x3f624668	0.8838868
110	0x3ea13509	0.31485775
111	0x3e9df165	0.30848232
112	0x3eb0445b	0.3442715
113	0x3ebb3453	0.36563358
114	0x3f4a6a60	0.79068565
115	0xbe94e01b	-0.2907723
116	0xbe7494f2	-0.23884943
117	0x3f34080e	0.7032479
118	0x3e36309a	0.17791978
119	0x3ed09cbc	0.4074458
120	0xbef652b3	-0.4810997
121	0x3f06f211	0.52713114
122	0x3e1b5bcf	0.15171741
123	0xbe8ae28b	-0.27125964
124	0x3df03a0b	0.11729821
125	0x3e9c57fd	0.3053588
126	0x3f2c0305	0.6719211
127	0x3e955572	0.29166752
128	0xbe9be14b	-0.30445322
129	0xbe2f7770	-0.17135406
130	0x3ea3d203	0.31996164
131	0x3c8bf731	0.017085643
132	0x3e9b6130	0.30347586
133	0x3efc69bf	0.49299428
134	0xbe8ab4e4	-0.27091134
135	0x3f20b549	0.6277662
136	0x3dee732c	0.11643061
137	0x3e9b2df7	0.30308506
138	0xbdfd97f8	-0.12382501
139	0xbe4e68ed	-0.20157214
140	0x3f0fd078	0.56177473
141	0xbdef16c5	-0.11674265
142	0x3d03d394	0.0321842
143	0x3f0ad772	0.54234993
144	0xbe7a148b	-0.24421899
145	0xbe35eae8	-0.17765391
146	0x3e84122e	0.2579512
147	0x3f513bf9	0.81732136
148	0x3f1823e5	0.5942977
149	0x3eb92a8a	0.36165267
150	0xbf3af01b	-0.7302262
151	0x3f3aef60	0.7302151
152	0xbd0ab679	-0.033865426
153	0x3ee278fd	0.44232932
154	0x3ee70ff8	0.4512937
155	0x3f2d1ea9	0.6762491
156	0x3d6743f4	0.05646129
157	0x3da6f698	0.08152503
158	0x3ea2754e	0.3173012
159	0x3f119243	0.568638
160	0x3f10cc22	0.5656148
161	0x3e8b5f7a	0.2722128
162	0x3f0be4c7	0.5464596
163	0x3e8c63c2	0.2741986
164	0xbe829754	-0.2550608
165	0xbe5f694c	-0.21817511
166	0x3f0f5014	0.55981565
167	0x3eb5399c	0.35395515
168	0x3f51c0b9	0.81934696
169	0x3f2e3e87	0.6806416
170	0x3cfe7ec2	0.031066302
171	0x3f3a1ff8	0.7270503
172	0x3ed6ae1a	0.41929704
173	0x3f0586cd	0.52158815
174	0x3d9defa0	0.077117205
175	0x3ea5ab32	0.32357174
176	0xbc037587	-0.008023626
177	0xbea17699	-0.31535795
178	0x3f02b827	0.51062244
179	0x3e9b138e	0.30288357
180	0xbd84bfe1	-0.064819105
181	0x3eafbefb	0.34325394
182	0x3e3e0390	0.18556046
183	0x3ebf4fb2	0.3736549
184	0x3e1b3dca	0.1516029
185	0x3f33fd76	0.70308626
186	0x3e9c7f8c	0.3056606
187	0xbeb18946	-0.34675044
188	0x3dcc14c9	0.09964902
189	0xbea7f088	-0.32800698
190	0x3f59621b	0.8491532
191	0xbea95141	-0.33069804
192	0x3e12932f	0.14313959
193	0x3eac9080	0.33703995
194	0xbf216f44	-0.630604
195	0x3e2710e1	0.16315033
196	0x3f11e9cd	0.56997377
197	0x3f43e022	0.76513875
198	0x3e8bf3d3	0.2733446
199	0x3ec16c3c	0.3777789
200	0x3e735963	0.23764567
201	0x3eab2e81	0.33433917
202	0xbc5a44bf	-0.013322054
203	0x3ec385eb	0.3818811
204	0x3e9571f2	0.29188496
205	0x3e096e6b	0.13421027
206	0xbe5b734a	-0.21430698
207	0x3ec084bb	0.37601265
208	0xbe5f0ab5	-0.21781428
209	0xbecd2975	-0.40070692
210	0xbe546b8e	-0.20744154
211	0x3e7a574b	0.24447362
212	0x3ed5ab1a	0.41732103
213	0x3f57e112	0.84327805
214	0x3e2e8234	0.17041856
215	0x3e1fbb05	0.15598686
216	0xbf166687	-0.58750194
217	0x3f00e347	0.503468
218	0xbe7ec7e5	-0.24880941
219	0x3ef57ef2	0.47948414
220	0x3e8a84c4	0.27054417
221	0x3d9e3139	0.07724232
222	0x3ed84e66	0.42247313
223	0x3e0668ea	0.13125959
224	0x3eb5374f	0.3539376
225	0x3e9c518e	0.3053097
226	0x3eb70394	0.35744917
227	0x3f2cd209	0.6750799
228	0x3f024993	0.50893515
229	0x3eab7b25	0.3349239
230	0x3ce8c1d0	0.02841273
231	0xbce9e14c	-0.028549813
232	0x3f24d575	0.6438821
233	0xbcbb4a0d	-0.022862459
234	0xbe4184ba	-0.18898287
235	0x3ea15967	0.3151352
236	0x3f615711	0.8802348
237	0x3f8572fe	1.0425718
238	0x3ec009bc	0.37507427
239	0x3f2640a6	0.64942396
240	0xbcaf519e	-0.021401223
241	0xbeb52634	-0.3538071
242	0xbe45ea4f	-0.19327663
243	0x3e2c7306	0.16840753
244	0xbdab3c52	-0.083611146
245	0xbc9c2d98	-0.01906471
246	0x3ee4e7ea	0.44708186
247	0x3ebf0294	0.37306654
248	0x3dfdd1eb	0.12393554
249	0x3e04c27e	0.12964818
250	0x3f061b54	0.5238545
251	0xbea4e709	-0.32207516
252	0x3e796aba	0.24357119
253	0x3d9c347f	0.076272
254	0x3dd89c4d	0.10576687
255	0x3e85f9ba	0.2616709

conv2.fc_self.weight f4 [7, 64]
0	0x3ebdd90a	0.3707965
1	0x3ed1a95b	0.4094952
2	0xbeb9337d	-0.36172095
3	0xbd962bca	-0.07332571
4	0x3f1e52de	0.61845195
5	0x3eb48240	0.35255623
6	0xbdade154	-0.084902436
7	0x3de0f88d	0.10984907
8	0xbe519f96	-0.20471033
9	0x3d804a9d	0.06264231
10	0x3e8871ce	0.26649326
11	0xbf27b159	-0.65504986
12	0x3e5730c3	0.21014695
13	0x3d834f13	0.064115666
14	0x3f022446	0.508366
15	0x3ee09d18	0.43869853
16	0xbea9c703	-0.33159646
17	0x3e9de41f	0.30838105
18	0x3f49efc5	0.78881484
19	0x3edce0f4	0.43140376
20	0x3e5b383e	0.21408173
21	0x3e37749c	0.17915577
22	0xbe900525	-0.28128925
23	0x3ea946d2	0.33061844
24	0xbe14f1b9	-0.14545335
25	0x3f4c1fcf	0.79736036
26	0x3f2043a8	0.62603235
27	0x3efa0d02	0.4883805
28	0xbe931c91	-0.28732732
29	0x3dd444d2	0.10364689
30	0x3eed2511	0.46317342
31	0x3f68a8b3	0.90882415
32	0x3f64df6c	0.89403415
33	0xbdc5b34d	-0.096533395
34	0x3df65af4	0.12029067
35	0x3f6a24aa	0.91462195
36	0xbd824130	-0.0636009
37	0x3e89d5d3	0.26920947
38	0x3f5bd643	0.8587381
39	0xbee95160	-0.45569897
40	0x3f1bb376	0.6082071
41	0x3e17c360	0.14820623
42	0xbe9a254a	-0.30106574
43	0x3ec84f19	0.39122847
44	0x3f3bdf87	0.7338795
45	0x3f091cdd	0.53559667
46	0x3ecaa781	0.3958092
47	0x3f43620d	0.7632149
48	0x3ea9c84a	0.3316062
49	0x3e1de764	0.154203
50	0x3f21a787	0.6314625
51	0xbcc1d422	-0.023660723
52	0x3ec7ba85	0.3900949
53	0x3e8af653	0.27141055
54	0x3e4c1076	0.19928154
55	0x3e65baac	0.22434491
56	0xbf4cf5a5	-0.80062324
57	0x3f3b25e3	0.73104686
58	0x3ecbfe6a	0.3984254
59	0x3eb8a966	0.3606674
60	0xbe29d87e	-0.16586491
61	0x3e177c28	0.14793456
62	0x3f3d1a12	0.73867905
63	0x3e0756d6	0.13216719
64	0x3e83d2e0	0.25746822
65	0x3d932217	0.071842365
66	0xbf209b08	-0.6273656
67	0x3db43325	0.087988175
68	0x3e1f4450	0.15553403
69	0x3f1ae269	0.60501724
70	0x3f7559fa	0.9584042
71	0x3f0c4aba	0.54801524
72	0xbea2a96a	-0.31769878
73	0x3f4887d1	0.7833224
74	0x3f24371b	0.64146584
75	0x3ed5abf1	0.41732743
76	0x3ec3e0fc	0.38257587
77	0x3e2e7008	0.17034924
78	0x3e8b96d3	0.27263507
79	0x3f2254e5	0.6341079
80	0x3eb2ca00	0.3491974
81	0x3ebe859d	0.37211314
82	0xbcbeefbc	-0.023307674
83	0x3e826162	0.25464922
84	0x3ef39b52	0.47579437
85	0x3e4d9c4d	0.20079155
86	0xbf306d07	-0.6891636
87	0x3e538a07	0.20658122
88	0x3ebb6a88	0.36604714
89	0x3e0e253b	0.1388139
90	0x3f7b45a0	0.98153114
91	0x3f10bc60	0.5653744
92	0x3d5935f1	0.05302996
93	0xbdf86438	-0.1212849
94	0x3f2f3345	0.68437606
95	0x3f5276a8	0.82212305
96	0x3eae196e	0.34003776
97	0xbe599d6d	-0.2125146
98	0x3f042f90	0.51635075
99	0x3f0f209c	0.5590913
100	0xbecb23ca	-0.39675742
101	0x3ee42a43	0.44563493
102	0x3f742b76	0.95378816
103	0x3db44094	0.0880138
104	0x3ea84409	0.32864407
105	0x3e35a89a	0.17740098
106	0x3e84fb35	0.25972906
107	0x3f3c5be9	0.73577744
108	0x3e92c0ec	0.28662813
109	0x3f27c750	0.655385
110	0x3dad0484	0.08448127
111	0x3f2873c5	0.6580165
112	0x3eea768d	0.45793572
113	0x3ebdd4ad	0.3707632
114	0x3f0fbb9b	0.5614564
115	0x3d4f3e51	0.05059654
116	0x3ce4a410	0.027910262
117	0x3ef9fc39	0.48825243
118	0x3ea170eb	0.31531462
119	0xbde6889d	-0.11256526
120	0xbf28527b	-0.65750855
121	0x3e908858	0.28229022
122	0x3ef0e489	0.47049358
123	0xbde0a2cd	-0.10968552
124	0xbe163e68	-0.14672244
125	0x3d919efa	0.071104005
126	0x3f0939ed	0.5360401
127	0x3e7045fe	0.234642
128	0x3ecfb709	0.40569332
129	0xbd92c3f2	-0.0716628
130	0xbf29c374	-0.6631386
131	0x3cb93e1e	0.022612628
132	0x3f53632b	0.82573193
133	0x3e4b6b5e	0.19865176
134	0x3e491b66	0.19639358
135	0x3f69d86a	0.91345847
136	0x3e01b5ae	0.12666962
137	0x3ea92036	0.33032387
138	0x3ecd7d83	0.4013482
139	0xbeb5ca7c	-0.35506046
140	0x3efd6697	0.49492332
141	0x3e6a9ba9	0.22910942
142	0x3ebb289f	0.3655443
143	0x3f156c77	0.5836863
144	0x3da1ffd1	0.07910121
145	0xbe294713	-0.16531019
146	0x3f02d60c	0.5110786
147	0x3f3c085a	0.73450243
148	0x3f452726	0.7701286
149	0x3e600f18	0.21880758
150	0xbeff7b35	-0.49898687
151	0x3e789dfb	0.24279015
152	0xbc8ec0fc	-0.017426006
153	0x3f5c9df3	0.8617851
154	0xbcd2101c	-0.025642447
155	0x3ecddcc9	0.40207508
156	0xbe77171a	-0.24129906
157	0x3e6560ce	0.2240021
158	0x3d540d7b	0.05177067
159	0xbd93be9c	-0.0721409
160	0x3f3f0e2b	0.74630994
161	0x3ebdebdf	0.37094018
162	0x3f0459e3	0.51699656
163	0x3dfaf4fe	0.1225376
164	0xbd32dcb6	-0.043667518
165	0x3e7830eb	0.2423741
166	0x3f749718	0.9554305
167	0x3d75c69d	0.060003866
168	0x3f3a754b	0.72835225
169	0x3e8281e6	0.2548973
170	0x3e0ee177	0.13953196
171	0x3edf29c2	0.43586546
172	0x3ea60200	0.324234
173	0x3e8ae41e	0.27127165
174	0x3d89ea26	0.067341134
175	0x3f687188	0.90798235
176	0x3eb88ac8	0.36043382
177	0x3eb3b6fd	0.35100546
178	0x3f466943	0.77504367
179	0x3cc4d3c9	0.024026768
180	0xbe1a3fb2	-0.1506336
181	0x3b62a5e2	0.0034583737
182	0x3f69bb2f	0.91301244
183	0xbe9ca17b	-0.3059195
184	0x3f10a06c	0.56494784
185	0x3e321160	0.1738944
186	0x3e85ceec	0.2613443
187	0x3cb54bb4	0.022130825
188	0x3dcf0ce1	0.10109878
189	0xbe405c2c	-0.18785161
190	0x3ed532e4	0.4164039
191	0x3d84db7a	0.06487174
192	0x3f09b3f1	0.53790194
193	0x3e3067f1	0.1722715
194	0xbeeed8c4	-0.46649754
195	0x3e87335e	0.26406378
196	0x3e2e3689	0.17012991
197	0x3ec9219a	0.39283448
198	0x3c245556	0.010030111
199	0x3e9a61a2	0.30152613
200	0x3d0c95ad	0.03432243
201	0x3df8a071	0.12139977
202	0x3d49e3ea	0.04928962
203	0x3f3f12b8	0.7463794
204	0xbed0fb7a	-0.4081686
205	0x3d1041b8	0.035218924
206	0xbe3daef2	-0.18523768
207	0x3f573813	0.8406994
208	0xbeaf2d09	-0.34214047
209	0xbe7faacf	-0.24967502
210	0x3ed3f6f4	0.41399348
211	0x3edc9240	0.4308033
212	0x3c06a36a	0.008217672
213	0x3e167388	0.14692509
214	0x3e595f68	0.21227801
215	0x3eeaaac9	0.45833424
216	0x3eb75258	0.3580501
217	0x3f4d7fc6	0.8027309
218	0x3e9deb48	0.30843568
219	0x3f267d1b	0.65034646
220	0x3eabd7cb	0.33563074
221	0x3ebd8316	0.37014073
222	0xbdc59659	-0.09647817
223	0xbe236d68	-0.15959704
224	0x3eadd599	0.33952025
225	0xbe5c3a0d	-0.2150652
226	0x3ef94fb1	0.48693612
227	0x3f0c81d2	0.5488559
228	0x3dee6438	0.11640209
229	0xbe71a371	-0.23597504
230	0x3e6a7ea2	0.22899869
231	0xbecf5914	-0.4049765
232	0x3e15858c	0.14601725
233	0x3f27ada6	0.6549934
234	0xbe066857	-0.1312574
235	0xbe8aa266	-0.27077025
236	0x3f5ee9f4	0.87075734
237	0x3f6c24b9	0.92243534
238	0xbcc9be1a	-0.02462678
239	0x3eb78ee3	0.358512
240	0x3ec1354d	0.37735978
241	0xbcfae5c3	-0.030627137
242	0x3ea4b9ef	0.32173106
243	0x3e4ad604	0.19808203
244	0xbeb2a3b3	-0.34890518
245	0x3eaa0d2f	0.33213183
246	0x3f511d06	0.8168491
247	0xbeafeec9	-0.34361866
248	0x3e335a43	0.17514901
249	0x3f33c2c4	0.70219064
250	0x3f5c3aa3	0.8602697
251	0x3ea9df46	0.33178157
252	0xbe3fe239	-0.18738641
253	0x3ec671b5	0.38758627
254	0x3f26b83f	0.6512489
255	0x3e22964c	0.15877646

conv2.fc_self.bias f4 [7]
0	0x3f03f91e	0.51552
1	0x3f28fde0	0.6601238
2	0xbcc6fdb1	-0.024290891
3	0x3ec53e82	0.38524252
4	0x3eef9a10	0.46797228
5	0xbea42963	-0.32062826
6	0x3d35dc7e	0.04439973
